python-data-science-introduction/mount/cifar_net.pth (torch, 251401 bytes, 10 tensors)

conv1.weight f4 [6, 3, 5, 5]
00000000: 6a38 f1bd 7804 003d ff00 8b3e 6046 a63e
00000010: 1a1b 63bd 89c9 8ebd af2e 9b3e 6b27 533e
00000020: b0f2 f43c 5d24 cbbd 9a4f c73c 830c 363e
00000030: 0fb9 863d 67a1 0fbe fe2c 89bd 5035 bb3e
00000040: 62f9 f53d 96ce 6cbd 7e5d a5be bb33 c13b
00000050: a10f c13e d7f3 29be bd21 b8be 3c1c afbe
00000060: c7ff 5a3d 7f5d 76be 392f 62be c19c e1bd
00000070: 67a8 b1bd 5d8b b5be b4d9 44be 8bf8 9b3d
00000080: 2a5e 09bd ff60 afbe 3cc2 b4be 2deb e53d
00000090: 228e 273e 6fe6 95be 4314 b1be 03de 55be
000000a0: 2c03 e83e 5e18 90bd f937 b0be ae96 00bf
000000b0: 12b6 7b3c 7033 af3e 14ff 77be 8885 dbbe
000000c0: e3b6 e0be c04c b93d 70f9 55bd 19af bc3c
000000d0: f990 983d 5660 0b3e 88ca 8c3c 661d 03be
000000e0: 44a7 e13d e083 253e f7e7 c33c e3fd 483e
000000f0: 58ee 903d 26f6 a93e 7832 3dbd da42 72be
00000100: acd0 2f3e 11d9 af3e 353d 3b3e e798 a7be
00000110: 2bda 68be 3638 8f3e adca 953e 8d38 d83c
00000120: 85d6 8fbe f557 24be 23ca b93d 1ee2 b73c
00000130: 6c93 6dbe c2e8 05be e74c 66be 5a60 b2bd
00000140: 6de9 613d 24d8 aabb e7c6 853d 11b0 6d3e
00000150: 0058 553d 752c b2bd 357c 9bbb 54f7 cd3d
00000160: 59b2 e6bc fceb 2fbb bfbf 48be b9c9 eabe
00000170: ca2d 0fbf a42b 20bf 9d07 01bf fb0c e93d
00000180: 1729 5c3c 25fc 93be 863f 37be aa10 21bd
00000190: 6ce7 3c3b b1eb 9cbe bfa5 72be fe9b 7dbe
000001a0: 3133 4a3c 79d2 233e 1f58 803e aa2e f43e
000001b0: a36f c63e a192 213e 1704 133e 0674 fc3e
000001c0: 7904 0e3f ab4c e13e 884f 8b3e d845 2dbe
000001d0: c0e2 acbe d637 a0be ad0e c7be 762d 09be
000001e0: 274f 1bbd 7488 3bbe eb4c 38be b001 03be
000001f0: a640 c8bd c7b1 81be 5734 60be b5cc 82be
00000200: ea98 a6be 3fe9 43be 6e3e 44bd 6ded 533e
00000210: 53b3 283e 810c a23e 0274 503e 2f43 303e
00000220: 5448 053f 7d3f 063f a2da 013f 48d9 a73e
00000230: 9dee 413d 5359 e9bd 2e9d 6ebd 3814 bebd
00000240: 11d6 7cbd aede 883e cd90 dbbc 6530 263d
00000250: 23f2 f63d ce4d 8b3d 1a88 00bd 5b22 933c
00000260: c2b6 cf3d de74 173d fee4 03be 47a0 013e
00000270: 56bd 8bbe 108e 203e f225 0a3e ae8a 83be
00000280: 4c2d 963e 0b75 39bf 84a3 9e3c 1603 463f
00000290: bf15 c5be f12b 273f d501 3abf 198f 43bf
000002a0: 3ffc 283f b256 603e d3a8 eb3e 84c1 3e3d
000002b0: 8858 20bf 775c 38be e8af 89bd 3c91 69bb
000002c0: 6303 23bd 9aec 05bb 60c2 bd3d 5f24 353e
000002d0: 2562 f3bd dc68 cbbe 7e64 8b3e a961 d73e
000002e0: d0e9 0a3d 263b 2f3e 593c 46bf 4b74 133e
000002f0: b75a 6e3f 13ea 63bd b919 c73e 42c1 50bf
00000300: 160c 25bf f9be 813f 8822 b93e f6d9 ab3e
00000310: 44de e3bd 76a6 10bf f9ae 113d c6e8 373e
00000320: be3f 4abc 64a4 acbd 363e 3c3c 2384 06bd
00000330: d295 16be 764c 973d 8f23 28bc 9ab7 dd3d
00000340: aadd 263e e882 b6be c1f6 bc3e f46c 10bf
00000350: 770a 3f3e 7d3e 0a3f aece 13bf 7712 1e3f
00000360: adfc 1bbf 7753 07bf 2a9b 193f f87d 863d
00000370: b25c ab3e e824 633e 63ad cfbe 7a3a 59bc
00000380: 12c6 a9be 863d e93e 2fcc 40bd 51d5 a9be
00000390: d071 f93d 7038 043e fbba 903c 5a5b eabe
000003a0: 2fda e3bd 6431 f83e 52e8 4d3e 0317 3fbe
000003b0: 6ab6 6ebe 12c2 d23e b337 bd3e c0dc 28be
000003c0: 3e3f 01be 422f 313e 5111 903e 51d0 f13d
000003d0: c9dc 9cbe 331d 6c3c 735f 333e 0bcb 03bd
000003e0: 0c6e 95be b7be 16be f9be 9c3e 9765 66be
000003f0: ea69 b7be 5a4c c9bd 67a8 3e3d a7ad f73b
-0.11778338 0.03125426 0.27149197 0.32475567 -0.055445768 -0.069720335 0.30309054 0.20620506
0.029900879 -0.09919045 0.02432995 0.1777821 0.06578266 -0.14026414 -0.06698035 0.36564112
0.120104566 -0.057814203 -0.3229789 0.0058960593 0.37707236 -0.16596924 -0.3596324 -0.3420123
0.053466585 -0.24059103 -0.22088327 -0.110162266 -0.08674698 -0.35457888 -0.19223672 0.07615765
-0.033537067 -0.3425369 -0.3530444 0.11226497 0.16362813 -0.2927737 -0.3458577 -0.20885472
0.4531492 -0.07035898 -0.34417704 -0.5022992 0.015363233 0.3421893 -0.24218398 -0.42875314
-0.43889531 0.09047842 -0.052239835 0.023032712 0.07449526 0.13610968 0.017186418 -0.12804183
0.110182315 0.16163588 0.02391432 0.196281 0.070767105 0.3319561 -0.04619071 -0.23658314
0.17169446 0.34345296 0.18285067 -0.32733843 -0.22739474 0.27972573 0.29256192 0.026394153
-0.28093353 -0.16049178 0.09071758 0.022446688 -0.23200768 -0.13077071 -0.22490273 -0.08709784
0.055154253 -0.0052137543 0.06532078 0.23211695 0.052085876 -0.08699886 -0.0047450312 0.1005694
-0.028161215 -0.0026843539 -0.19604395 -0.45857027 -0.55929244 -0.6256659 -0.5040224 0.11379429
0.013437531 -0.2890331 -0.17895326 -0.039322533 0.0028824462 -0.30648568 -0.2369604 -0.24766538
0.012341307 0.15998258 0.2506723 0.47691852 0.38757047 0.1577859 0.14357029 0.4930727
0.55475575 0.44003806 0.27209115 -0.16921175 -0.33766747 -0.312926 -0.38878384 -0.13396248
-0.037917282 -0.18313771 -0.17998092 -0.12793612 -0.09777956 -0.25330946 -0.21894966 -0.25546804
-0.3253854 -0.19131945 -0.0479111 0.2069604 0.16474657 0.31650165 0.20356753 0.17213129
0.5206349 0.52440625 0.5072423 0.3278296 0.0473467 -0.1139399 -0.058255367 -0.092812
-0.061727587 0.2673239 -0.026802445 0.040573496 0.12057903 0.068019494 -0.031379797 0.017960718
0.1014228 0.036976688 -0.12880322 0.12658797 -0.2729289 0.15679193 0.13491037 -0.25691742
0.29331434 -0.7244422 0.01936508 0.7734846 -0.38493153 0.65301424 -0.72659045 -0.76390225
0.66009897 0.21908072 0.4602724 0.04657127 -0.6263509 -0.18004023 -0.067230046 -0.0035639545
-0.03979815 -0.0020435215 0.0926559 0.17689656 -0.11883954 -0.3972844 0.27225107 0.42066696
0.033914387 0.17112407 -0.77435833 0.14399831 0.9310717 -0.055643152 0.38886812 -0.8154489
-0.64471567 1.0136405 0.36159158 0.33564728 -0.11126378 -0.56504 0.035567258 0.1795989
-0.012344299 -0.084297925 0.011489442 -0.03284086 -0.1470559 0.07387631 -0.010262384 0.10826035
0.16295496 -0.3564675 0.36907008 -0.5641625 0.18656336 0.540016 -0.57737243 0.61746925
-0.6093243 -0.5286173 0.60002387 0.065669954 0.33469158 0.22182047 -0.4056197 -0.013258571
-0.33158928 0.4555475 -0.047069725 -0.3317056 0.12179911 0.12912154 0.017667284 -0.4577282
-0.111255996 0.48475182 0.20108154 -0.18661122 -0.23311773 0.4116369 0.36956558 -0.1649046
-0.12621781 0.17303184 0.2813821 0.11807311 -0.30637196 0.0144112585 0.1751688 -0.03217606
-0.29185522 -0.1472119 0.3061445 -0.22499691 -0.35822994 -0.09829016 0.04654732 0.007558543

conv1.bias f4 [6]
00000000: 8d57 d3be b5f9 3bbe f894 81be ca61 78be
00000010: 7af9 d9be 218a 903d
-0.41277733 -0.18356974 -0.25308967 -0.24256054 -0.42573148 0.07057596

conv2.weight f4 [16, 6, 5, 5]
00000000: 5f96 38bc aea7 593c 61fe 43be e37e 863e
00000010: bbd6 f3bd 0d81 023e c579 d0ba d1e8 003c
00000020: cea5 923e 32a5 2fbe 1dc3 613e 2c1b 8d3c
00000030: f65a 803e 21c7 d43e 3d4a 99bc 5ccb af3d
00000040: df2e 82bb 9ddb 353e 579c 183e 590e 4fbc
00000050: 619c c0be 66f0 edbe 5524 8bbe d448 5bbe
00000060: ccb8 94be fb46 673a c9de b9bd e48d aabc
00000070: f0d6 3c3d 8b30 bfb7 2859 f33a 1fbe 043e
00000080: 01e6 a7bc d426 19bd a50e 18bd 0d59 7fbc
00000090: 6e0d 273e c027 dd3d 0613 06bd cf41 06be
000000a0: 9028 59bd ec21 103e fda6 693d c11f 80bd
000000b0: 7057 babd 9b42 5bbe 4539 80bd 3d9a b4bc
000000c0: 090e 8cbd 5ef6 87be 9abc d83b ada5 72bd
000000d0: 607c a03b aa28 98be c3dc a73e d1c6 6e3c
000000e0: a8b1 8c3d b1ca 823e 3fa5 abbd a029 fc3e
000000f0: 50e1 383e deb7 693e 6112 853e bfb8 f33c
00000100: 50af a93e 7b07 a73e 53d0 d03d 1c01 2c3e
00000110: 821d ab3d 8111 d9bc 714c d0be 5e8b 1dbf
00000120: a84a 0fbf 053a 0abf f6bd 02bf a0a5 223e
00000130: f5b6 f83c 5193 c53d bc86 56be 6075 273d
00000140: be12 3b3d 485f 8dbd 0da7 b13d c0d4 6bbe
00000150: 3b21 023e d29c 8cbd 7e33 41bd f7d2 02bd
00000160: 6b58 83bd 6b5d e63d 85f7 2b3d 89fe 8f3d
00000170: 433f 4f3d 722f 013e f159 5e3e 4eaa b6bd
00000180: f186 24be 4514 bebd 4d48 bbbd 0488 38bd
00000190: 47d0 873e d2ea 35bd 655c 8c3d ce43 043c
000001a0: abcf c23d 477c 543e 813b 76bd 44ff 4d3d
000001b0: 884e 81bb 5ab2 343d dac8 9c3d 3f0a 07bd
000001c0: 6ed2 70bd 1b43 9bbd 86d6 6bbe 95e1 ffbc
000001d0: 5303 bcbc a6b5 1dbd ae64 46be b393 15be
000001e0: 030a 36be 4514 8bbd 3d5e 80bd 98d1 47be
000001f0: 7745 30be 9ad7 ab3d 8777 313e 4553 d73d
00000200: 6a45 503e 405e 5cbc 947f 17bd 784b 05bd
00000210: eea0 efbd 86b7 eabd 8696 0ebe be7e 3bbe
00000220: 70d5 e7bd be81 9abe cab8 adbd f874 39be
00000230: 6d45 1ebe 478b 0abe f2a2 abbd 4b00 ae3c
00000240: 14dc 753c 4919 9b3c d87d 643e 4061 843e
00000250: ebb0 313e bd22 fa3d d8a7 9c3d 5532 cbbc
00000260: 5937 8d3d 47c2 b23d 9d51 70bd cc4f 3cbe
00000270: 6676 e8bd ded2 4fbd 430d 13be 4098 6fbb
00000280: e098 acbe c097 86be 1f79 98be 7c93 c4bd
00000290: ee3d bfbd 35ac 13be 97b1 34be 807a 66be
000002a0: bc32 a6be c1aa 18bd f00b f4bd 5bfe 29be
000002b0: fea8 dbbd a11e 45be 7b29 c53d ffee 0fbd
000002c0: 5fc7 1f3d 939c 2f3d e411 b13d 8a48 ac3a
000002d0: 5240 413c fa5a 3b3d d73c ddbd eef8 8c3c
000002e0: a737 213d b730 fc3c 6d99 8bbd f5cf 00bd
000002f0: 4028 92bc d44a 49bd 2d92 6a3e 1eb5 3f3d
00000300: bfb7 11bd 13ca d8bb 4ef5 25be 8877 9a3c
00000310: e5c7 3b3d 7f8c 12bc e7e0 dc3d d957 773c
00000320: b5ff f03d 22a5 973e a0ac a33e a248 053e
00000330: fdbc fdbb b250 eabd 744e f93d dff9 863e
00000340: 91bb b73e a810 ec3d ad2e 5f3d 3af8 7abc
00000350: 7c35 70bd bfba c03e 4b66 ca3e 6997 683e
00000360: 3b25 283e 5cd3 e33c 730c 2f3e a28c 953e
00000370: b5f2 4bbe d11b 5bbd 05b3 443e 62aa 383e
00000380: eceb 153d 0e58 ae3b 2b51 04bd 1974 00be
00000390: f69d 1bbd 7610 33bd 8902 4abe a907 debd
000003a0: 942b 17be 57a0 1abe 3d3f 59be 2f1b 6ebe
000003b0: 247e b6bd d3a3 69be 225c 0dbe cb21 cdbd
000003c0: 586f 30be b4a9 febd 8f8e 9cbe 7b34 99be
000003d0: f074 0bbe 18f5 eabc 82e6 21be 27cd d2bd
000003e0: bcfc 2ebe 7ce8 3abe fdae 8c3d c989 c3bc
000003f0: 61a4 9a3c bded 94bd ddb9 1cbe 59b9 66bd
-0.01126632 0.013284607 -0.19140007 0.26268682 -0.11906191 0.12744541 -0.0015905431 0.007868008
0.28642124 -0.17152861 0.22047086 0.01722487 0.25069398 0.41558173 -0.018712157 0.085837096
-0.0039728726 0.17759557 0.14903389 -0.012637698 -0.37619308 -0.46472472 -0.27176157 -0.214145
-0.2904724 0.00088225276 -0.09075696 -0.020819612 0.046103418 -2.2791579e-05 0.0018565999 0.1296315
-0.020495417 -0.037390545 -0.03712334 -0.015585196 0.16313717 0.10798597 -0.032732986 -0.13111041
-0.0530172 0.1407544 0.057044018 -0.062560566 -0.09098709 -0.21412127 -0.06260923 -0.022046203
-0.068386145 -0.2655515 0.00661428 -0.059240032 0.004897639 -0.29718524 0.32785615 0.014573769
0.06869823 0.25545266 -0.083811276 0.49250507 0.180547 0.22824046 0.25990584 0.02975118
0.33141565 0.32622895 0.10195985 0.16797298 0.083552375 -0.026497604 -0.4068332 -0.6154078
-0.5597329 -0.5399478 -0.5107111 0.15883493 0.030360678 0.09647239 -0.20949835 0.040883422
0.04567217 -0.06902939 0.086744405 -0.23030376 0.12707989 -0.068658486 -0.047168247 -0.031939473
-0.06413349 0.11248287 0.0419841 0.070309706 0.05059744 0.12615755 0.21713997 -0.08919202
-0.16067101 -0.0928121 -0.0914465 -0.04505159 0.2652609 -0.044413395 0.0685356 0.0080728065
0.09512266 0.20750533 -0.06011534 0.05029227 -0.003946129 0.0441154 0.07655497 -0.032968756
-0.05879443 -0.07581159 -0.23031053 -0.031235496 -0.022950804 -0.03850331 -0.19374344 -0.14607124
-0.17777257 -0.067909755 -0.062679745 -0.19513547 -0.17213999 0.08390732 0.17330752 0.10513929
0.2033898 -0.013450205 -0.036986902 -0.032542676 -0.11700617 -0.114607856 -0.13924608 -0.18310067
-0.11320007 -0.3017711 -0.08482511 -0.18111026 -0.15456171 -0.13529693 -0.08380689 0.021240374
0.015006084 0.018932955 0.2231363 0.25855446 0.17352645 0.12213657 0.07649201 -0.024804274
0.06895322 0.08728462 -0.058671582 -0.18389815 -0.11350708 -0.050738208 -0.14360528 -0.0036559254
-0.33710384 -0.2628765 -0.29779908 -0.09598443 -0.09337984 -0.1442116 -0.1764587 -0.22507668
-0.32460582 -0.03727222 -0.119163394 -0.16600935 -0.10725592 -0.19249965 0.096270524 -0.035140034
0.039008494 0.04287393 0.086459905 0.0013144177 0.01179512 0.04574106 -0.1080262 0.017208543
0.039359715 0.030784948 -0.06816373 -0.031448323 -0.017841458 -0.049143627 0.22907324 0.046803586
-0.035575625 -0.006615886 -0.16206858 0.018855825 0.04584493 -0.00894463 0.10785084 0.015096628
0.11767522 0.29618174 0.3196764 0.13015988 -0.0077434764 -0.11441173 0.12173167 0.26362512
0.3588529 0.115266144 0.054487873 -0.015317971 -0.058644757 0.37642476 0.39531168 0.22714008
0.16420452 0.027810745 0.17094593 0.29208857 -0.19916804 -0.053493325 0.19208916 0.18033746
0.036601946 0.0053205555 -0.03230397 -0.12544288 -0.03799244 -0.04371687 -0.1972753 -0.10841305
-0.14762717 -0.15100227 -0.2121553 -0.23252557 -0.08910778 -0.228164 -0.13804677 -0.10016211
-0.17229974 -0.12434712 -0.30577514 -0.29922852 -0.13618827 -0.028681323 -0.15810588 -0.10293036
-0.17088598 -0.18252748 0.06869314 -0.023869412 0.01887721 -0.072719075 -0.15305276 -0.056329105

conv2.bias f4 [16]
00000000: 600e 65bf d4ac c03e fb30 523f b6c0 9d3e
00000010: e722 e1be 5c91 48bd 7111 a93f 628f 143f
00000020: 405a 8d3e 0f40 bd3d 814b 35bc cbec d63e
00000030: 4248 8ebe d304 33be e27d 0fbe 52d3 7abf
-0.8947506 0.37631857 0.8210599 0.3081109 -0.4397194 -0.04896675 1.3208448 0.58031285
0.27607918 0.09240734 -0.011065365 0.41977534 -0.27789503 -0.17482309 -0.14012864 -0.979787

fc1.weight f4 [120, 400]
00000000: 0f6d 3dbb 7bdb 123d 59ee 3a3d 6b68 26bd
00000010: ee57 84bc c8ca 393d 4960 813b c9a1 a9ba
00000020: 5bc0 a8bc a304 0dbc a62c 51bc 1e9d 863b
00000030: 22a6 993c f946 c93c 402b 15bd cd63 75bb
00000040: ca94 89bc c862 aebd 1ebd 233d 9ef4 c4b8
00000050: d619 6a3c 81d1 caba 7005 9dbd 89f2 21bc
00000060: 30d9 acbc 5028 2ebd 2972 46bc 5430 18bd
00000070: 4c9a 253d 05d9 313c 9bf8 1e3c c88f dcbc
00000080: 127a 0a3d 7200 103d b424 2ebd f5a2 b53a
00000090: 8130 01bd 8a39 d9bc 2da1 35bd c05f 763c
000000a0: da6d 333c 2d56 18bd 494d 4a3c 40e9 d5bb
000000b0: 90b1 3b3d 698a b9bc da39 f73c 281a a63b
000000c0: c497 a13c 334b 973c d3c5 e0bc b2f4 52bc
000000d0: a770 53bc 1636 0f3d ad76 0dbd ac48 d73c
000000e0: 2d3a 843c c996 313d cbe1 3bbd f600 94bd
000000f0: f134 833d 1894 c2bc e123 643c bd26 81bc
00000100: 665f 35bd 0482 afbc 8379 88ba 457d ba3c
00000110: bd43 5e3c 5959 81bc e8f9 a63b 1dab 093d
00000120: 2525 4e3c 8c69 663c 93ee 3a3d 0ee5 a6bc
00000130: 9021 263d 8849 98bc 4928 4bbd 727e 4abd
00000140: a185 0dbd 4e6d 603d fc03 b7bb 6394 833c
00000150: 77fd 4abd c8f1 053d 4ea6 f8bc ca84 ec3c
00000160: 02aa 7dbb 0a74 80bc 6ae0 053c 9304 52bc
00000170: dc9d 08bd fe85 6e3c c388 153d af79 40bd
00000180: 5969 4dbc 1494 d3ba e0f9 f83b fa46 573c
00000190: 56ba 973b 5c8b 393d e115 803d 5871 2d3d
000001a0: a87f 563b 0db9 05bd 8595 883c 8dba 1bbd
000001b0: a213 a8bc 4bbe d5bc 6d27 7b3b 3bf1 4c3c
000001c0: 41b3 14bd 2400 83bd 1c37 dbbc 89dc 9ebb
000001d0: 809f 48bd 7d2a a9bd 16ab 8bbd be6e d73c
000001e0: 383f 533b c047 a2bc 117d d0bb bf4d c13a
000001f0: f361 083d 9f9d 2a3d 7f9e c0bc ff0a 453c
00000200: 071f 153c 5bdd e9b9 5bf2 f33c d122 883c
00000210: ba92 2cbd fa78 313d b901 42bc 0f1d 21bd
00000220: 8c59 abbc ed0b 223d 690b 353b affa 233d
00000230: c21f 133d b96f f93c 0023 173d cfd7 88ba
00000240: 0903 f83c 9a99 0a3d 57b9 f43c 4cf4 263b
00000250: d71b 213d 622c ccbb 657c 963c 5c7d b7ba
00000260: 7ffa 41bd 97a8 05bd 423c 343d 3fac 35bd
00000270: a79f 24bd f178 e0bc 9f86 ec3c 59b5 07bd
00000280: 54dc ff3c 4902 9cbc e5fa 18bd b0ec 5fbd
00000290: 48d2 56bd 1823 95bc 1ad2 94bc f98b 5ebc
000002a0: d490 9abc 54ca 46bd c96c 273d e549 ad3c
000002b0: 0d6e 74bc 89aa 51bd 4f53 5c3c 45f9 113c
000002c0: 25a3 27bd f6e5 d8bc aa62 08bd 5291 1d3c
000002d0: 70fe e3bc ddd4 b13c 2e59 a7bc 2748 91bb
000002e0: 3f50 48bd 0a08 b13c 0990 ebbc d3c0 8c3c
000002f0: 8018 29bc 65fa 193d cf6b c6bc 52c0 233d
00000300: 1ff2 8cbb e18c d93c cce7 e23c a84d 4a3d
00000310: 55fc c63c 041b 803d f0f1 703c baa3 a33d
00000320: d5e5 07bd 0199 72bd b5ce 56b8 210f 88bc
00000330: 5bd9 4ebd 85ef 113c bb94 8fbd 8008 c6bb
00000340: 5b67 02bd 2d5b 1d3d af36 2e3c 6a8f 64bc
00000350: f151 583b 97bb a8bd 5d91 26bd 7dc1 8fbc
00000360: a7a6 9dbc fbe5 aa3c 8cb0 1bbc 9930 1fbc
00000370: c7c2 143d 6a34 b5bc b6da 363c 9812 3bbd
00000380: f29c d3bb add1 b93d 2d4b 733d 3b8c cebc
00000390: 7045 e13c 6b2a 13bc 1673 883d f423 c2bc
000003a0: e9af c83b 88cf 0f3a 118c 9f3a 2145 d73b
000003b0: 4939 9bbb 7e80 423d 63a7 153d c1c4 0e3b
000003c0: 3adc 9fbc 8f57 a9bc 10c1 f2bb 9aef 853d
000003d0: 656d a03c 257a 923b 8205 523d 95fd 823d
000003e0: 5445 8c3d 9ed7 123b 5352 a8bc d691 f2bc
000003f0: c21a 9fbc 6629 37bd c96b 223d 88d7 093d
-0.0028904115 0.035853844 0.045637462 -0.040626924 -0.01615521 0.045359403 0.0039482457 -0.0012941892
-0.020599535 -0.0086070625 -0.012766993 0.0041080853 0.018755976 0.024569975 -0.0364182 -0.003744352
-0.016794581 -0.08514935 0.039975278 -9.391572e-05 0.014288386 -0.0015473814 -0.07667053 -0.009884485
-0.021099657 -0.042518914 -0.012112179 -0.037155464 0.040430352 0.010854964 0.009702827 -0.026924029
0.03380782 0.035156675 -0.04251547 0.0013857769 -0.031540398 -0.026516695 -0.044343162 0.015037477
0.010951484 -0.03719156 0.012347528 -0.0065280497 0.045823634 -0.022649007 0.030178953 0.005069036
0.019725688 0.018468475 -0.02743808 -0.012875723 -0.012905276 0.03496369 -0.034537006 0.02627977
0.016141022 0.04335669 -0.04586963 -0.07226746 0.06406582 -0.023752257 0.01392457 -0.015765542
-0.044280432 -0.021424301 -0.001041219 0.022764811 0.013565955 -0.015789675 0.005095709 0.033610452
0.012582098 0.01406325 0.04563768 -0.020372894 0.04055935 -0.01858975 -0.049598966 -0.049436994
-0.034551267 0.05479174 -0.005585192 0.016061967 -0.04955813 0.032701284 -0.030352738 0.028871913
-0.003870607 -0.015680332 0.00817118 -0.012818473 -0.03335367 0.014558313 0.03650738 -0.046991047
-0.012537324 -0.0016142153 0.007598147 0.013139481 0.0046303673 0.04529892 0.06254173 0.04234442
0.0032729898 -0.03264718 0.016672859 -0.038019706 -0.020517174 -0.026091715 0.003832306 0.012508686
-0.036303762 -0.06396511 -0.026759677 -0.004848067 -0.048980236 -0.08260057 -0.068197414 0.026297923
0.0032233726 -0.019809604 -0.0063625653 0.0014747902 0.033296537 0.041654225 -0.023513077 0.012026547
0.009101636 -0.00044606146 0.02977865 0.016618164 -0.042132117 0.043328263 -0.011841231 -0.039334353
-0.020916723 0.039562155 0.002762521 0.040033992 0.03591896 0.030448781 0.036898613 -0.0010440293
0.030274885 0.033837892 0.029873533 0.0025475202 0.03933319 -0.006230877 0.018369863 -0.0013999152
-0.047358032 -0.032631483 0.04400278 -0.04435372 -0.04019132 -0.02740142 0.028872786 -0.03313193
0.03123299 -0.019044058 -0.037348647 -0.054669082 -0.052446634 -0.01820521 -0.01816659 -0.013583177
-0.018867888 -0.0485328 0.04087523 0.0211534 -0.014918816 -0.051188026 0.013447597 0.008909528
-0.04092707 -0.026476841 -0.03329722 0.009617167 -0.027831286 0.021707946 -0.020428266 -0.00443365
-0.048904654 0.021610279 -0.028755205 0.01718179 -0.010320783 0.03759231 -0.024221329 0.039978333
-0.004301324 0.026556434 0.02769842 0.049390465 0.024290243 0.06255153 0.01470612 0.07990213
-0.03317817 -0.059227947 -5.1214087e-05 -0.016608777 -0.050500255 0.008907204 -0.0701079 -0.0060434937
-0.03183685 0.03841703 0.010633155 -0.013950208 0.0033007825 -0.08238905 -0.040665973 -0.017548317
-0.019244505 0.020861616 -0.009502541 -0.009716176 0.036318567 -0.02211972 0.011160543 -0.04567203
-0.0064579183 0.090731956 0.059397865 -0.025213351 0.02749893 -0.008982281 0.06662576 -0.023698784
0.0061244857 0.00054859417 0.001217248 0.00656952 -0.0047370535 0.04748582 0.036536586 0.0021784755
-0.019514192 -0.020671634 -0.0074082687 0.06539841 0.019583413 0.004470127 0.051274784 0.06396023
0.06849161 0.002240635 -0.020547068 -0.029610556 -0.019421939 -0.044717215 0.039653573 0.033652812

fc1.bias f4 [120]
00000000: a4d6 4bbd 1917 f53d 35ea 1d3e c568 e33d
00000010: 9c04 98bc 98cf 05be d18e ad3d 4dda 603d
00000020: 30b0 ca3d 0ed1 29bd 112b b43d 4c71 ebbc
00000030: 3bc7 e6bc 2e7f 24bc 980e f33a d9b7 233e
00000040: 037b c03d ad4f f6bd a8d7 d63d bdc8 af3c
00000050: 4998 3e3e 80d3 1c3d 300f 863c 0dea 3e3e
00000060: 66a7 71bd 1d03 2dbd 9255 513e 0d51 48bd
00000070: 778f 153d 3662 5ebc e965 c63c b912 593a
00000080: 2f6f f23a b950 e0bd 0303 d7bd 45a4 b83c
00000090: 12ca 073e 088a 26be 3d29 c33d 6044 863c
000000a0: 0405 8b3d 30eb 993d afc1 69bc 423e 513c
000000b0: 102d c0bd 1b25 ff3d 7bcf 723e bd5c 8dbd
000000c0: 673c 173e 42b6 4c3e 1b85 1b3e ae24 babc
000000d0: b5a2 30bd 1944 423e 45f0 153e a371 8fbd
000000e0: 6e3a c93d 89ab d33d 506a 6fbd 9299 67bd
000000f0: 22f1 e6bb 411a c4bd d55d 53bd 3000 6bbe
00000100: 0bab b83d 62de dbbb 417b 68be f5d3 563e
00000110: 6c47 3e3e c06f 1e3d 5da9 05bd 766c 253e
00000120: 5af6 833c 8d8f 1ebd 750a fabc 6bde c4bc
00000130: b227 15bd 2e55 b43d 7000 b43c 2e9d 8e3b
00000140: d8fb 0fbe 4414 a0bd 38e2 8dbc 4db6 bdbd
00000150: bb1f 7fbc 6420 c9bc 2d54 b2bd e0df 423c
00000160: adb6 093e 0952 063c dbac 933d 9f4d fe3c
00000170: 26cf ce3c fe29 8aba 9e5f cf3d b45e 5abd
00000180: a574 023d 4623 8e3e 3087 cbbd fd95 0b3d
00000190: 8384 a03d f38c 323e 54f0 373d 5f6f ab3d
000001a0: 7ef8 4cbd 44d9 8bbd ced4 063b a42e dc3b
000001b0: fb12 a23d fcea 1a3e 1b93 44be a675 b33d
000001c0: 4315 d13d 2ab1 4fbd 6d89 9a3d 903c 0bbd
000001d0: 406b 333c e8b4 3b3d 39eb 7cbd 394c 243e
-0.049765244 0.11967296 0.15421374 0.111039676 -0.018556885 -0.13067472 0.08474506 0.054895688
0.09896886 -0.041459136 0.08797277 -0.028740548 -0.028171172 -0.010040088 0.0018543778 0.15988101
0.093984626 -0.12026916 0.10490352 0.021458024 0.1861278 0.03828764 0.016364664 0.18643971
-0.058997534 -0.042239297 0.20442799 -0.04890542 0.03651377 -0.01357322 0.024218516 0.0008280683
0.001849627 -0.109528966 -0.10498621 0.022539267 0.13260677 -0.16263592 0.0952935 0.016390026
0.06788066 0.075155616 -0.014267369 0.012771191 -0.09383595 0.12458249 0.2371196 -0.06902454
0.14769135 0.19991401 0.15187494 -0.022722568 -0.04312392 0.1897129 0.14642437 -0.07004096
0.09825598 0.10335452 -0.058450997 -0.05654294 -0.0070477882 -0.0957532 -0.051603157 -0.2294929
0.09016999 -0.0067098597 -0.22703268 0.20979293 0.18581933 0.03868079 -0.03263222 0.16154656
0.01610868 -0.03871112 -0.030522564 -0.024031838 -0.03641481 0.08805309 0.021972865 0.0043522334
-0.14060915 -0.07816365 -0.017319784 -0.09263287 -0.01557153 -0.024551578 -0.087074615 0.011894196
0.13448592 0.00819827 0.07210704 0.031042872 0.02524526 -0.0010541079 0.101256594 -0.053312972
0.031849522 0.27761286 -0.09937894 0.034078587 0.078377746 0.1743658 0.04490693 0.08370852
-0.050041668 -0.068285495 0.0020573619 0.006719427 0.079137765 0.15128702 -0.19196741 0.08762674
0.102091335 -0.050706066 0.07545743 -0.033993304 0.010950863 0.045826823 -0.061747763 0.16044702

fc2.weight f4 [84, 120]
00000000: 2a18 fc3c b642 aa3d 42c6 8d3d a1f2 9c3c
00000010: 3e67 85bd 3d86 d2bd 927f 053d eb9f 333d
00000020: 4496 62bd 4996 95bd 9648 313d 03a0 533c
00000030: 2605 fa3c 4c35 0f3d 58a9 abbd ae18 2dbd
00000040: 00cf 1cbd a8c9 bb3c c107 d6bc 1f20 6bbd
00000050: c102 90bd a1ba 873c 0abf 563d 66d5 bfbd
00000060: 7bbc 783d 1e66 b1bd b6db d4bb 746d 95bd
00000070: 2444 88bd 25d7 aabd c579 60bd 43bb 193b
00000080: da1d 303d a081 b4bc cbdc f5bc 73d0 943d
00000090: d6da 573d 55e8 19bc 9a42 aebd 363f 4c3c
000000a0: 630e 86bd 74d6 c53c a3d7 363d ac19 573d
000000b0: ab23 ce3b ca5e 0abd 3de0 2bbd e1d9 9a3d
000000c0: 2881 67bd c2b0 9ebd 10b8 403b 3c87 95bc
000000d0: 9cc2 2f3d 20fc d3bd a4e2 b5bd 24f0 f7bc
000000e0: 81e5 85bd 7207 d2bc ee66 ce3b 29de 92bd
000000f0: a115 b1bc 93a0 d83c 32bf 1f3d c123 6ebc
00000100: d588 a1bd 6b49 b0bd 5fee a1bb 811d 373c
00000110: 2340 ed3c 3faa 71bd 0939 cf3c e03b 75bd
00000120: 9005 283d 36a7 9f3d 520a 0e3d 16f1 b03b
00000130: 60eb ef3c 9979 d23c 48d2 9dbd dc4d 01bd
00000140: 0a48 b6bd b8a1 6a3d 7e5b cd3d 2c65 c53a
00000150: d1e4 253d d8d4 c03d 1bae 95bd d844 4b3d
00000160: 573a 3dbb 2963 963c 489f 29bb 44ad 08bd
00000170: 018c a3bc 105e 2abd 95cc b93c be00 ff3c
00000180: 4177 45bd 14e6 683c a59c 673d 46dc b33d
00000190: 3491 4cbd 70a8 cfbd fb96 633d 5f36 73bd
000001a0: 992d b4bb aa55 0dbc 7124 58bd c3b4 24bd
000001b0: 8b3f 42bc 8adc 3fbd 688a 823d 63e7 aabd
000001c0: 25cd 45bd b9ab cebd 792c dfbc 5f94 433d
000001d0: 1ede 22ba ef53 563c 76df abbd d49d 893c
000001e0: c49c 2f3d 1505 e73c 3d40 69bd 1d48 0b3d
000001f0: 40df 113d edda 94bd 8a65 3ebd 1e3f b03d
00000200: 269b 1a3d 7f9b 7abd 450a aabc 88a5 afbd
00000210: fe7a c4bd 1da4 48bd 2f67 b73c 0ff9 1b3c
00000220: 8747 e1bc 4f1d dfbd d139 443d fcf4 193d
00000230: 98f0 3fbc 0e6b b1bc 834c 91bd 6bb3 1f3d
00000240: 9e39 acbc ce00 31bd 2f65 ccbd 3eb1 873d
00000250: d4c9 a7bc b128 113d 2534 99bb 0c2e 2abd
00000260: d4b0 88bd aa40 c0bd b5d1 a6bd dbd4 32bd
00000270: a18c 9e3d 13f1 31bd a329 8f3d e19b a7bd
00000280: 7b91 49bd 478a 713d 3474 e5bc 9b5a 973c
00000290: ed0f a1bc df45 ea3c 2f52 94bd db9a 443c
000002a0: d939 7cbc 1993 1fba 6ff6 2e3d 4fd7 a33b
000002b0: 5d72 cd3c 4d1b 2bb9 3c68 32bd ced7 bd3c
000002c0: ab5d 42bc 6efb 963d ff1e 223d db0f f3bd
000002d0: e4f8 52bd 91f0 c03d 051f 5f3c ae70 e1bc
000002e0: ffa2 4e3d e094 a53d 73eb ae3d 9190 46bd
000002f0: ef6e 563d d43c 56bc ff46 603d b677 17bd
00000300: 1f5e fc3c 9b6f 663d 3ef0 b43c 40d7 a13b
00000310: 54c0 dd3c 43e6 c73d 21a8 1a3d 10d1 59bc
00000320: 3f65 0abd 277b 91bc ec22 65bd 8e4c e5bc
00000330: 8cec ecbb b227 67bd 1645 8e3d 1d5e 9cbd
00000340: 6016 01bd 6a99 cf3a 0b14 afbc 7217 413d
00000350: 1da4 163d b9bd cabd 88d9 41bd 4445 003d
00000360: 8ef2 973d 0a87 94bd 74c8 f03c c5f1 ae3d
00000370: df24 913d 1b1f 8dbd e42d 3a3d bd1d a83c
00000380: fcdf 77bd 627d 91bd 6d1a b9bb ddb6 893d
00000390: b459 2abd 5ab7 ebbc 6d20 8e3d 50aa 4ebc
000003a0: 7ff5 353c 94cb fdbb 8273 bcbd 68f9 05bd
000003b0: a9af e5bd 9bb9 013d 3355 a03c 1a52 773d
000003c0: d35c 9b3c 27a5 563c 7f6b 073d 1b0f 56bc
000003d0: 8462 49bc 90e0 6b3c 8930 6bbd 1b66 893c
000003e0: a3b5 a93d def4 8bbd 50f4 893c 41e4 013d
000003f0: 0980 983c 5578 133c 9ed7 453c 85d8 99bc
0.030773241 0.08313505 0.0692258 0.019158663 -0.065138325 -0.1027951 0.032592364 0.04385368
-0.055319086 -0.07304055 0.043282114 0.012916568 0.030520033 0.034962937 -0.08381909 -0.042259865
-0.038283348 0.022923306 -0.026126744 -0.05740368 -0.07031775 0.016568484 0.052428283 -0.093668744
0.060726624 -0.086620554 -0.006495918 -0.07296267 -0.06653622 -0.08341817 -0.05480363 0.0023457564
0.04299722 -0.022034466 -0.030012509 0.07266321 0.052698933 -0.009393771 -0.08508797 0.012466243
-0.06545713 0.02415011 0.04463924 0.052514717 0.006290873 -0.033781804 -0.041961897 0.07561088
-0.056519657 -0.077485576 0.0029406585 -0.018252961 0.042910203 -0.103508234 -0.08881119 -0.030265875
-0.06537915 -0.025638316 0.0062988913 -0.0717128 -0.021616759 0.026443755 0.039000697 -0.014534892
-0.07887427 -0.08607753 -0.004941746 0.011176468 0.028961247 -0.05900025 0.025295751 -0.059871554
0.04102093 0.07795565 0.03467781 0.0053998334 0.02928704 0.025692748 -0.077061236 -0.031568393
-0.08900459 0.057283133 0.100272164 0.0015060059 0.04050142 0.09415597 -0.073085986 0.0496262
-0.0028873885 0.01835783 -0.0025882293 -0.033368364 -0.01996422 -0.04159361 0.02268056 0.031128284
-0.048209433 0.014215011 0.056545872 0.08782248 -0.049943164 -0.10139549 0.055563908 -0.059378024
-0.0054985997 -0.008626381 -0.05276913 -0.04021145 -0.01185597 -0.04684118 0.06374055 -0.08344915
-0.048291344 -0.10091347 -0.027242886 0.04774892 -0.00062129076 0.013081535 -0.08392231 0.016798891
0.042874113 0.028200665 -0.056946028 0.03400432 0.0356133 -0.07268319 -0.046483554 0.08605789
0.037745617 -0.06118345 -0.02075685 -0.085764945 -0.095937714 -0.048984636 0.022388069 0.009519829
-0.027499927 -0.10894262 0.0479067 0.03758715 -0.011715077 -0.021657493 -0.070946716 0.038989466
-0.021023568 -0.043213658 -0.09980237 0.06625603 -0.020481981 0.035439197 -0.0046754056 -0.04154782
-0.06674352 -0.09387334 -0.08145467 -0.043660026 0.077416666 -0.043442797 0.069903634 -0.081840284
-0.049211007 0.058969762 -0.028009512 0.018475821 -0.019660914 0.02859777 -0.07242238 0.011999811
-0.015394651 -0.0006087288 0.042715486 0.005000032 0.025078947 -0.00016318001 -0.043556437 0.023174193
-0.0118631525 0.07372175 0.03958034 -0.118682586 -0.05150689 0.094208844 0.0136182355 -0.02751955
0.050448414 0.08085036 0.08541002 -0.048477713 0.05235189 -0.013076026 0.054755207 -0.0369794
0.0308066 0.05625878 0.022087213 0.00493899 0.027069248 0.09760716 0.037757996 -0.013294473
-0.033787962 -0.017758919 -0.055941507 -0.027990606 -0.007230347 -0.05643434 0.06946771 -0.07635138
-0.03151548 0.0015838568 -0.021371862 0.0471415 0.036777604 -0.09899468 -0.047326595 0.031316057
0.074193105 -0.07252319 0.029392458 0.08542208 0.07087111 -0.068906985 0.04545392 0.020521993
-0.060516343 -0.07103993 -0.005648902 0.067243315 -0.041589454 -0.028773952 0.069397785 -0.012613848
0.011105894 -0.0077452157 -0.09201719 -0.032708555 -0.11215145 0.031671148 0.019571876 0.060381033
0.01896516 0.013100899 0.0330615 -0.013065125 -0.012291554 0.014396802 -0.057419334 0.01677232
0.082865976 -0.06833814 0.01684013 0.03171182 0.01861574 0.009000857 0.012075333 -0.018780002

fc2.bias f4 [84]
00000000: 2467 9bbd 11a2 173d 5e81 7d3d a5e9 2bbd
00000010: 6fc7 1dbc af06 4c3e 7899 9ebc dac9 053d
00000020: 1d6d 81bd 087e 3e3e 58a8 92bb 7c46 853d
00000030: aac3 c8bc e5ae 753d 4b5e 14be 2878 ee3d
00000040: 17dd 72bd 04d3 4cbd 5ac3 c43e f3fe 5b3d
00000050: 0687 96ba fff3 1ebe bec2 0a3e ed8a 8c3d
00000060: 91a9 b1bd eca4 333e 7e8b 373e 3b7b 7f3b
00000070: dbce 263e 7382 783b 0848 7e3e f2ab 3dbc
00000080: cec7 013e 54b3 87bd 7abb 9abb b75e 8cbd
00000090: 7831 343d bc0c fdbc 073c 433e 1072 1abc
000000a0: d350 a83e d628 633e d6c0 513e 25d0 dd3e
000000b0: bb50 3abd 2b0f f3bc ea11 b53e 9efd 1abe
000000c0: 26ea 2d3e ecf1 c03d b663 debd 3edd 403d
000000d0: ff24 ea3e 32df c33e 8724 a63e 89f8 d83d
000000e0: f234 cdbc d5d5 e53e 2aeb 903e 68ee 3aba
000000f0: d508 6dbc bbbf 04bc 3d6c 8b3b daa4 543e
00000100: 5226 bbbd 44c2 52bd ac52 d33d 6566 7c3d
00000110: eb1f a5bd 9c3c 733e d056 853d 3681 a6bd
00000120: 73e6 373d 8902 0b3e 3398 34bd 058d 04be
00000130: 2e76 56bd c9e4 eebd 2236 0c3d bd14 453e
00000140: c99b 713e 5077 a83e 5dbe 263f 4824 8abd
-0.07588032 0.037019793 0.061890952 -0.041970868 -0.009630068 0.19924425 -0.019360289 0.032663204
-0.0631964 0.18602765 -0.0044756345 0.065075845 -0.024507362 0.059981246 -0.14489095 0.11644012
-0.05929288 -0.050005928 0.3843029 0.053709935 -0.0011484332 -0.15522765 0.13550851 0.068624355
-0.0867492 0.17543381 0.17924306 0.0038983363 0.16289847 0.003791955 0.24832165 -0.0115766395
0.12673876 -0.06626001 -0.004722056 -0.06854003 0.04399249 -0.030889861 0.19065867 -0.009426609
0.32874164 0.22183546 0.20483717 0.43322864 -0.045487147 -0.029670319 0.3536523 -0.1513581
0.16983852 0.09421143 -0.10858862 0.047085993 0.4573135 0.38256222 0.32449743 0.10594279
-0.02504966 0.44889703 0.28304416 -0.0007130862 -0.014467438 -0.008102353 0.0042548464 0.20766011
-0.091381684 -0.051454797 0.10318503 0.06162109 -0.080627285 0.2375359 0.06510699 -0.08130114
0.044897508 0.13575186 -0.04409046 -0.1294442 -0.0523588 -0.11664731 0.034231313 0.19246192
0.23594584 0.32903528 0.6513422 -0.06745201

fc3.weight f4 [10, 84]
00000000: 8ca4 073a 93d1 90bd 904d a0bd a1b0 adbd
00000010: 7c0e 0fbe d7b7 443d 3a62 f03d c6a9 a43b
00000020: b19c 403e 6ad8 9b3d 2746 e3bc ced9 09be
00000030: 1dbe cc3e 5f9c 9bbe 88dd 743d 8763 0f3d
00000040: cda6 0cbc d900 61bd 3036 21bb 8470 263e
00000050: ad27 b1bd 641f 553e 4477 18be 4296 643d
00000060: b46b eb3d 99d0 09be 3092 9d3d 4d64 013b
00000070: b89d b8bd 1228 fe3d 9f23 39bd 8ae9 13be
00000080: 6de3 2d3d fc99 133e de93 de3d 9db4 c13b
00000090: 3eb5 9b3d 2f56 e53b 70f2 fbbd 8e70 393e
000000a0: 11e8 85bc 6626 8abe 6632 9dbd c69c b5bd
000000b0: 36b5 003e 7b1e b13c 7f68 3fbe bb20 703e
000000c0: 0a37 87bd 0e4e 8b3d 8e5a 3bbc 9e60 cbbb
000000d0: 9fa7 cc3d 774f ad3e 4651 5d3e 876d 6c3e
000000e0: f3d2 643c a6d9 693e ebfb 92be f500 50bb
000000f0: e880 49bd 0a0d 44be ef60 0bbd adef f33d
00000100: 3316 123e 0e5d ba3c 1800 6d3d c63c 2abc
00000110: a9fd 1e3d 5caf a3be f717 4abd 65c3 e23c
00000120: 4217 06bd 820a 82bd e869 003e 4a54 2f3d
00000130: d9e0 1fbd 72d2 da3d 32c1 493e 665f 913d
00000140: 6c6b d13d dce3 06be 7b0e 8cbe a741 73bd
00000150: 07e6 23bd 546b 0abd 6731 f13d c79d 54bd
00000160: a556 a63e 8994 6f3c ff10 733d 4d22 aebd
00000170: d334 d93c 422f 9ebe 69cb f7bb 086b 6fbd
00000180: 5fd6 14bd 899f 14be 486f 423e 4a06 1bbe
00000190: 9524 793c c32c fabd 00f2 86be db7b 87bd
000001a0: 51ef 2abe 0a34 363e 90ac 8c3d 4aef 643d
000001b0: e4e8 a23c b104 603e 672f 5dbe 4b79 a2bd
000001c0: a595 0dbe 2aef 23bd ae78 c0bd 6f32 f7bd
000001d0: d302 b53d 9d97 853e 167b 40bd 1cb4 be3b
000001e0: 5f29 eabd 7297 f23d 527a 1a3e 8abb 1abe
000001f0: a8a8 99be 64e4 5abd baa1 f4bd ac46 86be
00000200: f119 0e3e 91c9 a3bd efe2 8cbd 6e19 b93d
00000210: ac6e 9b3d f161 4dbe 9f36 b43e c181 513e
00000220: 8f0c bcbe 4d19 963d 8583 053e 250b ae3e
00000230: 58fc 4ebc f44d 3bbe d619 e13d 5bb4 8e3d
00000240: f735 733d b7ae 30bd 490d 9f3e 8e3b 19bc
00000250: a31c 4b3d d6f3 01be 04f2 563d 2c28 c73d
00000260: 3420 ce3d 76a9 bebd d545 013e d0a5 903e
00000270: 996b dbbc 25ba bfbe d0b7 373e cf27 45bd
00000280: 91b5 0fbc bb0f c5bb abed 4e3e 4e5c 3dbe
00000290: e308 16be ac62 71be 696e 59be cffd 17bc
000002a0: afd7 4fbc d38c bf3d 5f5d c23c 95ef adbd
000002b0: f822 87bd e0ba babc 6091 9ebd 9fb6 1fbe
000002c0: 5137 183d 7503 c5bc 137e c13d 46ee 0c3e
000002d0: 57f6 e03d 9b9f 23bd b996 cf3d ab06 803e
000002e0: 32ca 023e f7f5 503e 5623 023e 8fdc 503e
000002f0: 087a d4bc ce7d 47bd f5d4 f5bd 134d 1cbe
00000300: d2e4 21be 7199 f73a ec6e cc3e b080 503e
00000310: b98b 5eba 7909 9a3d 9425 663b ea0f 08be
00000320: b2ec 0a3c 3c84 02be 1f38 ca3c fe10 a83d
00000330: e49a 25be 6601 8ebb 31e4 bc3c 1080 7ebd
00000340: 7947 a2bc d91d c83d 922e 903e c464 a13e
00000350: 188d a2bc 6a96 b43d 7900 c73d c8c9 743d
00000360: a3bb 3c3e b535 553e fd34 c2bc 36a0 49bd
00000370: 4ef2 2a3e c437 0dbe c6c3 84be 900f 6bbc
00000380: ca12 df3c 7c85 103e 35b3 4f3d d75b 44bc
00000390: dd6d 1f3e b3f4 e13d 439c 33be ae77 a0bd
000003a0: 731e 95bb 7974 a13d a340 32bd 63df 033e
000003b0: a6ed 49be 4018 3d3e 08ae 96bc f4bd 86bd
000003c0: 11fa e8bd 995d 443e 2dac 1e3d a8fe ba3b
000003d0: e8b5 743d 051b 1d3e f491 c6bd defe b33d
000003e0: 2962 14bd e60f 8c3d a8ae 473d d0be d73d
000003f0: 2b35 033d 1364 e9bc 084d 103d 5fb1 9cba
0.00051743607 -0.07071223 -0.07827294 -0.08480955 -0.13970369 0.048026886 0.11737485 0.0050251214
0.18809773 0.07609637 -0.027743412 -0.13461992 0.39988795 -0.3039274 0.05978158 0.035007026
-0.00858469 -0.05493245 -0.0024598949 0.16253859 -0.08650146 0.20812756 -0.14889246 0.05580736
0.11495152 -0.1345848 0.07693899 0.0019743622 -0.090144575 0.124099866 -0.045199987 -0.14444557
0.04245322 0.14414209 0.10868047 0.0059114234 0.076029286 0.0069987993 -0.12302101 0.18109342
-0.01634601 -0.2698242 -0.07675628 -0.08867793 0.12569126 0.02162098 -0.18692206 0.23449986
-0.06602295 0.06801997 -0.011435164 -0.006206586 0.09992909 0.3384969 0.21613035 0.23088656
0.01396631 0.22836933 -0.28707823 -0.0031738852 -0.0491952 -0.19145599 -0.03402799 0.11910949
0.14266281 0.02274945 0.057861418 -0.010390466 0.038816128 -0.31969726 -0.04933926 0.027681062
-0.032737024 -0.063496605 0.125404 0.042804994 -0.03903279 0.106846705 0.19702604 0.07098274
0.10225567 -0.13172859 -0.27354798 -0.059388783 -0.040014293 -0.033793762 0.11777001 -0.05190828
0.3248798 0.014622816 0.05934238 -0.08502636 0.026514446 -0.3089543 -0.00756209 -0.058451682
-0.036337253 -0.14513983 0.18987763 -0.15139118 0.015206476 -0.12215569 -0.26356506 -0.066154204
-0.16692854 0.17793289 0.06868851 0.055892266 0.019886442 0.2187679 -0.21600114 -0.07933291
-0.13826616 -0.040023006 -0.09398018 -0.12070166 0.08838429 0.26092234 -0.046992384 0.0058198106
-0.11433672 0.11845292 0.15085724 -0.15110603 -0.30011487 -0.053440467 -0.119449094 -0.26225793
0.13877083 -0.0799743 -0.06879222 0.090380535 0.07589468 -0.20056893 0.35197923 0.20459653
-0.3672833 0.073290445 0.13038452 0.33992878 -0.012633406 -0.18291456 0.10991256 0.06967994
0.059377637 -0.04313537 0.31064823 -0.009352578 0.049587857 -0.12690672 0.052476898 0.09724459
0.10064736 -0.09309666 0.12624295 0.28251505 -0.026784705 -0.37446705 0.17941213 -0.048133668
-0.008771316 -0.006013838 0.2020785 -0.18492243 -0.14651828 -0.23572797 -0.21233524 -0.009276821
-0.0126857 0.09353032 0.023726163 -0.08492962 -0.06598467 -0.022794187 -0.07742572 -0.15597008
0.03716213 -0.0240495 0.09447875 0.13762769 0.109844856 -0.039947134 0.1013617 0.25005087
0.12772444 0.20406328 0.12708792 0.20396636 -0.025937095 -0.04870396 -0.12003509 -0.15263776
-0.15809944 0.0018890334 0.39928377 0.2036159 -0.0008489448 0.07521338 0.0035117613 -0.1328732
0.008479284 -0.12745756 0.024684964 0.08206366 -0.16172367 -0.004333663 0.023058029 -0.06213385
-0.019809471 0.09771318 0.2816053 0.3152219 -0.01984267 0.08817752 0.09716887 0.059762746
0.18430953 0.20821269 -0.023706907 -0.049225055 0.16693994 -0.13790804 -0.25930613 -0.014346972
0.027230639 0.1411342 0.050708015 -0.011984787 0.15569253 0.11033001 -0.17540078 -0.07835327
-0.004550749 0.078835435 -0.043518674 0.12878184 -0.19719562 0.18466282 -0.018393531 -0.065791994
-0.113758214 0.1917633 0.03873842 0.005706627 0.05974379 0.15342338 -0.09695807 0.087888464
-0.036226425 0.0683897 0.04875055 0.105344415 0.032033127 -0.028490102 0.035229713 -0.0011954716

fc3.bias f4 [10]
00000000: 3adc 2bbe 608e 27bf 5f8f 523b 4911 d23e
00000010: 5199 3f3f 40f6 48be e005 91be 9c47 03be
00000020: 130d 9e3e af16 fcbd
-0.16783229 -0.6545162 0.0032128913 0.41028813 0.7484332 -0.19625187 -0.28324795 -0.12820286
0.3086935 -0.12309014
