python-data-science-introduction/mount/cifar_net.pth (torch, 251401 bytes, 10 tensors)

conv1.weight f4 [6, 3, 5, 5]
000000 e5 75 02 3d 8a f5 49 3e 1c b4 08 3e cf ef 97 bd
       0.031850714 0.19722572 0.13349956 -0.07418787
000010 43 d2 46 be 3a 7c a1 3b e1 03 ba 3d 07 11 1b bd
       -0.19416146 0.004928139 0.09082771 -0.037858035
000020 21 b8 17 be e2 d2 29 be c0 da ac bd 29 43 23 bd
       -0.14816333 -0.16584352 -0.08440161 -0.03985897
000030 77 18 e7 bd b8 6e ca bd 07 fc 3f be a6 61 5b be
       -0.11283963 -0.09884399 -0.18748485 -0.21423969
000040 be 72 5e 3d 87 69 18 be 8f 81 8b bc fe bd e2 bd
       0.054308645 -0.14884005 -0.017029552 -0.110713944
000050 ec 05 3d be 38 b1 e3 bd c6 72 9f bd 0d 83 26 be
       -0.1845929 -0.11117786 -0.07785563 -0.1626093
000060 6a c8 0b be db 80 aa bc 1e 34 1e 3d fa 3b f8 bc
       -0.1365067 -0.020813396 0.03862392 -0.030302037
000070 b2 83 8e bd a6 c8 db bd 60 db fa bc 3f 96 8d 3d
       -0.06958713 -0.1073163 -0.030622184 0.06913423
000080 1c 82 8d bb 06 8f 0b 3d a0 e0 24 be 34 dc 28 be
       -0.0043184888 0.034071945 -0.16101313 -0.16490251
000090 88 90 32 bb 4e ed ef 3d a0 1a 73 bc ab 61 e3 bd
       -0.0027246792 0.11715184 -0.014837891 -0.11102613
0000a0 df 22 39 be a3 09 b5 3c 52 80 8b 3d 8e ce d0 bd
       -0.18079709 0.022099322 0.068115845 -0.10195647
0000b0 c0 71 dc bd 29 a3 ae be d0 fe 0e be 61 6a d3 3d
       -0.107638836 -0.34108856 -0.13964391 0.103230245
0000c0 2d e9 4d 3d a6 f4 01 be 44 c0 7a 3e 38 0e 6f 3e
       0.050271202 -0.12690982 0.24487406 0.23345268
0000d0 55 95 2b 3e 4a 4f b9 3d 04 7d e0 3c 35 ca 66 3a
       0.16756184 0.09048326 0.027403362 0.0008803935
0000e0 9f ea 2b 3e 5f 35 98 3e ef 58 71 3e 40 98 ce 3d
       0.1678872 0.2972822 0.23569082 0.10087633
0000f0 2c b8 53 3d b8 33 96 3e e2 4b 6d 3e e0 ae 4e 3d
       0.05168931 0.29336333 0.23173478 0.050459743
000100 5b 84 40 3d 87 35 d9 3d ca a8 41 3e 3b aa a3 3e
       0.047001224 0.10605913 0.18912044 0.31965813
000110 f0 a0 76 3e aa 9c 15 3d 75 7e 0d bd 45 23 88 3e
       0.2408483 0.03652636 -0.034544427 0.2658941
000120 8c 81 29 3e ca b7 21 3e 19 7d b8 bd 00 4f a7 be
       0.16553324 0.15792766 -0.090082355 -0.3267746
000130 e4 8f 25 be 67 01 c1 be 92 76 c2 be 63 d3 43 be
       -0.16168171 -0.37696382 -0.37981087 -0.19123606
000140 94 b9 a5 3d 63 33 0c bd 9b 3f ec bd 3c 82 60 be
       0.08092037 -0.034228694 -0.11535569 -0.2192468
000150 d6 c5 00 be 6e 7e 96 3e f9 97 eb 3e 08 38 db 3e
       -0.12575468 0.29393333 0.46014383 0.42816186
000160 be a8 47 3e 63 72 9b 3e d3 93 3a be b3 2d a0 3d
       0.19497964 0.30360708 -0.18220453 0.078212164
000170 8c c5 c0 3c 1e ad b9 3d 81 1c 2e bc a9 90 64 3e
       0.023531698 0.090662226 -0.010626913 0.22320808
000180 5e a0 e2 3d 20 aa 47 bd 54 b0 c1 bd 44 25 88 3d
       0.11065744 -0.04874623 -0.0945746 0.06647733
000190 f3 40 64 be d5 65 ad 3c 7b 85 4c be 2b 31 a1 bc
       -0.22290401 0.021166721 -0.19972794 -0.019676765
0001a0 21 40 11 be 7c 3f 84 3d 19 bf 5f 3e ee 93 b7 3c
       -0.1418462 0.06457421 0.21850242 0.022409406
0001b0 31 39 30 be 25 a3 7e bc fd ba 04 3e b5 90 ea 3e
       -0.17209317 -0.015541826 0.12961955 0.45813528
0001c0 53 e4 f8 3e a5 4f 2c 3e da 47 c7 3e 77 62 80 be
       0.48611698 0.16827257 0.38922006 -0.25075123
0001d0 92 5c 84 bd 08 d3 04 3c 8a 51 bd bd 6a 74 1e bd
       -0.06462969 0.008106954 -0.09244068 -0.03868524
0001e0 8b 37 b2 3c 58 56 f1 bb d0 ca 5d be 87 d9 66 be
       0.021755 -0.0073650293 -0.21659398 -0.22543918
0001f0 62 a4 44 be af 0a f2 bd 83 38 84 bb a7 a4 5e be
       -0.19203332 -0.11818444 -0.004035057 -0.21742497
000200 fe fb 51 3d bd 50 d4 bc bb c1 a6 3d 90 a7 d1 bd
       0.05126571 -0.025917405 0.0814242 -0.10237038
000210 2e 03 21 3d 3c 9d 22 bd d5 95 8e bd fa 79 2f 3e
       0.039309673 -0.03970073 -0.06962172 0.17136374
000220 6a a5 92 3e 96 91 8a 3e 33 06 89 3e 3e e4 52 3e
       0.28641826 0.27064198 0.26762542 0.2059488
000230 ef 6a 8f be 48 7a 92 be ea 43 37 bc 98 d8 e0 bd
       -0.2801127 -0.28608918 -0.011185626 -0.10978812
000240 e0 a7 1f 3d 7f 79 ab 3d 31 4c 85 bd b9 b9 22 bd
       0.038978457 0.08372783 -0.06508673 -0.0397279
000250 b9 87 e1 bd 5e ac 88 3c 85 38 8f 3c 4a 40 3b bc
       -0.11012215 0.016683754 0.017483005 -0.011428902
000260 53 9f 86 bd 55 78 8e 3d 8e 9a 17 3e da 7e b4 bd
       -0.065733574 0.06956545 0.14805052 -0.088132575
000270 51 30 a6 bd 9d 31 17 3e 5b f4 a5 bd d8 7b f4 bc
       -0.081146844 0.1476502 -0.08103248 -0.02984421
000280 2b 26 42 be 11 7e d4 bd 7a 5d ec 3e ce 90 18 3e
       -0.18959872 -0.10375608 0.46165067 0.14898989
000290 23 f6 c3 be e5 4f 4f be 4e 67 cc bd d6 77 f4 3e
       -0.38273725 -0.20245321 -0.09980641 0.47747678
0002a0 07 89 7e 3e 56 f5 fa be 30 57 6d bd 92 c8 81 bd
       0.2485696 -0.490153 -0.057944477 -0.06337084
0002b0 cd bd a0 3e 16 b6 5a 3e 88 0b 31 be c3 3f 2b 3e
       0.31394807 0.21358523 -0.17289555 0.16723542
0002c0 cf ab 05 3e eb 7c 92 3d de fa 87 bd 53 20 6b 3d
       0.13053821 0.071527325 -0.06639646 0.057403874
0002d0 ef 1a 62 3d 2e 08 ec 3d 8d 03 a6 3e e6 9e a3 bd
       0.055201467 0.11524998 0.32424584 -0.07989292
0002e0 c3 7c be be e6 d7 85 bd f7 ba 90 3d 90 9a 11 3f
       -0.3720456 -0.0653532 0.07066911 0.5687647
0002f0 bc 08 5c 3c 94 c5 f3 be 81 7a bb bd 45 b1 12 bc
       0.013429817 -0.47611678 -0.09154225 -0.008953397
000300 91 a7 0f 3f d0 62 49 3d 4b cb 07 bf f3 d7 7c 3c
       0.5611506 0.0491665 -0.53044575 0.015432346
000310 88 de 0f 3e 30 3f c5 3e 5a 5b 11 3d e0 f1 95 be
       0.14049733 0.3852477 0.03548751 -0.29286098
000320 6a 2f 90 bd 3c cf d8 3c 03 cb fe bd 95 67 73 be
       -0.070402935 0.026466005 -0.12441065 -0.23769982
000330 68 d3 49 be 07 f7 a7 bc 4e dd 97 bd 2e c4 8d 3e
       -0.19709551 -0.020503534 -0.074152574 0.27688736
000340 fe b7 16 bd d8 29 72 be e0 71 f2 bb e5 ae d6 bd
       -0.036796562 -0.23648775 -0.007398829 -0.10482577
000350 bf 80 d9 3e 13 7c 2c 3b cd 35 17 bf e4 e0 29 be
       0.42481038 0.0026319071 -0.5906647 -0.16589695
000360 22 78 83 bb 16 45 f7 3e ca 0a 1e 3e de 46 04 bf
       -0.0040121237 0.48294896 0.15433803 -0.51670635
000370 5c 32 ab bc bd 16 bd bc 9f 10 b8 3e e0 22 50 3e
       -0.020898037 -0.023082132 0.3595018 0.20325804
000380 51 4d a9 be c7 07 01 3e e2 2e 53 3e ac 73 d9 bd
       -0.330668 0.12600623 0.20623353 -0.10617766
000390 2a f8 ce bd 69 a8 04 be f0 45 46 3e 0d e0 20 3d
       -0.10105927 -0.12954868 0.19362617 0.03927617
0003a0 aa 91 80 3d be 49 a8 be a1 98 98 be 6f 8a d4 3d
       0.06277783 -0.3286876 -0.29803947 0.103779666
0003b0 29 c6 00 be c7 c1 19 be 67 99 a5 bd 30 b7 3d 3d
       -0.12575592 -0.15015326 -0.080859 0.04631728
0003c0 77 35 df bc d9 ee 33 be ab 52 40 bd 34 1e 3b 3e
       -0.027247174 -0.17571582 -0.04695384 0.1827324
0003d0 a5 44 03 3e da b0 9c bd 4e f0 94 bd 8e f4 38 3d
       0.12819155 -0.07650919 -0.07272397 0.0451551
0003e0 59 2e ab 3e 96 7a d2 3e 89 e8 82 3d 67 fe 0f 3d
       0.33433798 0.4110915 0.06392009 0.035154726
0003f0 2c d4 13 bd f3 e5 9f be a7 25 e0 be 16 e7 03 3e
       -0.036091015 -0.31230125 -0.43778726 0.12881121

conv1.bias f4 [6]
000000 00 71 b7 3e 6f 37 85 be 41 b0 34 be 9c 1f ad be
       0.358284 -0.26018855 -0.1764536 -0.3381318
000010 47 a7 c2 be be 8d d4 be
       -0.38018247 -0.4151439

conv2.weight f4 [16, 6, 5, 5]
000000 64 88 df bc 97 e0 96 bd eb 6f 08 bd 41 44 b3 bd
       -0.027286716 -0.07367056 -0.03330986 -0.08753253
000010 c4 25 17 3c 97 99 6d bd 1d 54 c2 3c d5 cd 6a 3d
       0.009225313 -0.058007803 0.023721749 0.057325203
000020 20 4b 6e 3d 34 e2 81 3d 6e d0 fe bd 51 9b 48 3d
       0.058177114 0.06341973 -0.124420986 0.048976246
000030 4b b7 84 bc 90 3c ac 3d 69 80 31 3e d5 59 86 bd
       -0.016200682 0.08409989 0.17334141 -0.06560103
000040 74 9f d4 3c c5 60 08 b8 8e 77 c6 3d 34 52 7f 3e
       0.02595494 -3.251505e-05 0.09690772 0.24933702
000050 cd ec 2d be b1 72 c1 bd 49 40 b8 3d e4 2b 37 3e
       -0.16984864 -0.09445704 0.089966364 0.17887837
000060 70 c0 a3 3e b4 e6 aa bd e0 52 f5 bd 7e 16 29 bc
       0.31982756 -0.083447844 -0.11978698 -0.010320304
000070 62 84 13 bd 0e 0d 24 be 3b 00 f9 bd fa ca e7 bd
       -0.036014922 -0.16020605 -0.12158247 -0.113180116
000080 b9 ef b2 bd bf 48 1d be ab 3e ba bd ea 77 7b 3c
       -0.0873713 -0.15359782 -0.09093984 0.015348414
000090 cf b8 08 bd f3 d0 28 bd 2c 28 e3 bd 95 e6 aa bd
       -0.033379372 -0.041214895 -0.110916466 -0.08344761
0000a0 0c c5 db 3c bf 2e 40 3d a0 5d 65 3c 76 4a 20 be
       0.026827358 0.04691958 0.013999373 -0.15653405
0000b0 6f 15 0a be f9 8c 01 3e eb 83 c7 3d cf 44 25 bc
       -0.13484739 0.12651433 0.09741958 -0.010087206
0000c0 44 90 8b 3d a3 ad 5c 3c b1 d0 0f bd 0f 78 db 3c
       0.06814626 0.013469133 -0.035111133 0.026790647
0000d0 57 74 88 3b 47 83 a9 bc d0 d8 3e be c6 19 c1 bc
       0.0041642594 -0.02069248 -0.18637395 -0.02357186
0000e0 f7 de 28 bc 63 2c bb bc de 61 11 be 36 41 1e be
       -0.010307065 -0.022848314 -0.1419749 -0.15454563
0000f0 91 62 55 3d d5 a8 00 bd 1e 7c d9 bd 2f 25 38 be
       0.052095953 -0.03141101 -0.106193766 -0.17982934
000100 c4 70 b5 bd 48 6c 8e 3d a7 17 91 3d 41 af a3 bd
       -0.08859399 0.06954247 0.070845895 -0.079924114
000110 12 17 02 be 24 7c 03 be 78 ee d9 3d 0e 1e b8 3d
       -0.12704113 -0.12840325 0.106411874 0.089901075
000120 af d1 4e 3d 2c b4 51 bd 16 76 18 3e 03 fe f6 bd
       0.05049294 -0.051197216 0.14888796 -0.12060168
000130 86 43 ae bd 89 09 14 bd 2a a8 e0 ba 05 17 61 3c
       -0.08508973 -0.036141906 -0.001713996 0.013738398
000140 0a 64 42 be 26 6a 10 be 17 37 fd 3b ed b8 00 bd
       -0.18983474 -0.14102992 0.0077275145 -0.03142636
000150 6c 7e ce 3a 2e c7 15 bd f6 a6 10 bd cc 93 e1 3d
       0.0015754229 -0.036566906 -0.035315476 0.11014518
000160 f7 72 14 3d 7e 52 51 3d f1 a6 a4 3d 3f 04 ec 3c
       0.03624245 0.05110406 0.08039654 0.028810618
000170 a0 82 ea 3d c2 f8 f2 3d 7d 6d 60 bd 18 89 70 3e
       0.11450696 0.11863853 -0.054791916 0.23489797
000180 c3 7d 5e 3e dd 59 31 3e ff d0 2d 3d 36 ca 4f 3d
       0.21727662 0.17319436 0.042435642 0.050729953
000190 18 15 1e be fb 9a 73 bd fd a6 05 be b0 11 3c be
       -0.15437734 -0.059473973 -0.13051982 -0.18366122
0001a0 03 e9 d3 bd 70 d8 33 bd 30 89 30 be d2 fb f7 bd
       -0.10347178 -0.043907583 -0.17239833 -0.12108578
0001b0 91 0d 1f be a5 a7 6d be c6 2e 87 bd fe e1 b5 bd
       -0.15532519 -0.23208483 -0.06600718 -0.08880995
0001c0 4c 5b 26 be 13 20 65 be cf d7 75 be 6d 23 4d bd
       -0.16245764 -0.22375517 -0.24008106 -0.050082613
0001d0 cf 1d be bd a3 fb 02 be 17 f3 c8 bd 33 18 f6 bb
       -0.09283029 -0.12791304 -0.09811991 -0.007510209
0001e0 cc 9b 09 3e 0a 2e 7d bc 34 54 fb bd 94 d7 74 3d
       0.13438338 -0.015452871 -0.1227192 0.059775904
0001f0 9e dd cf 3d 7b bf dd bd dc dd 59 bd 9f cd 6f bd
       0.10149692 -0.108275376 -0.053190097 -0.058545705
000200 51 2c 14 be 82 d1 99 bc 02 89 91 bd fc b2 ce bd
       -0.1447003 -0.018776659 -0.0710621 -0.10092732
000210 7b 34 cd 3c 9d b5 0e be 69 d7 1a be 2c e8 83 bc
       0.025049439 -0.13936467 -0.15121235 -0.01610192
000220 f3 77 aa bd 82 0f 01 be 68 cb f8 bd 0f f6 f8 bc
       -0.0832366 -0.12603572 -0.12148172 -0.030390767
000230 78 e1 d6 3c 6b e4 7e 3b ea b2 d8 bd 89 03 2f be
       0.026230559 0.0038893472 -0.10581 -0.17091192
000240 67 2f 04 be a8 bc 9f 3d b1 89 05 3d f9 fd 13 ba
       -0.12908708 0.07799655 0.032602016 -0.000564545
000250 24 2c a3 bd 76 33 bf 3d c5 12 07 3e 8e 48 16 3e
       -0.079674035 0.09335987 0.13190754 0.14676115
000260 a2 0e 94 3e a3 87 9d 3e 61 e2 80 3e 5e ca d1 3c
       0.28917414 0.30767545 0.25172713 0.025609192
000270 82 45 4b bc 73 bd 04 be d9 eb 08 bd 43 ee de 3d
       -0.012406709 -0.12962894 -0.033428047 0.108852886
000280 29 b8 a2 3d d5 28 1b bd 78 33 3f bd 8e 4c db bd
       0.07945282 -0.037880737 -0.046679944 -0.10707961
000290 9d d4 ca bd 62 80 11 3e 65 13 46 3d 60 77 1a 3d
       -0.09903834 0.1420913 0.04835834 0.0377115
0002a0 c9 5d e2 bd c4 59 eb bd 76 80 45 3e c0 3d 6d 3d
       -0.11053044 -0.11491731 0.19287285 0.057920218
0002b0 4e b0 20 3e f5 a6 7a 3d 62 13 da 3d 9b 1e 11 bd
       0.15692255 0.06119438 0.10648228 -0.03542958
0002c0 72 95 ec 3c a9 d5 45 bd 6c fb 66 3d 9c 44 03 bc
       0.028879855 -0.048299465 0.05639212 -0.008011963
0002d0 b6 f4 11 3e fa 3b 1a 3e 99 63 f2 3c c4 fe 05 bd
       0.14253506 0.15061942 0.029588507 -0.032713667
0002e0 62 4c 66 3d 18 5a a3 3d f1 58 91 bb 70 35 12 3e
       0.056225188 0.079761684 -0.0044356515 0.14278197
0002f0 c8 d8 78 bc 88 b5 16 bd 1a 79 30 be 00 e1 a5 bd
       -0.015188403 -0.036794215 -0.17233697 -0.08099556
000300 6f 6f 95 bc b7 cd f8 ba b2 5f d7 bc a5 78 32 be
       -0.018241612 -0.0018982206 -0.026290748 -0.17428835
000310 69 c8 57 be c5 8b 53 be d6 44 94 bd 5a 7e b4 bd
       -0.21072544 -0.20658787 -0.07239692 -0.08813162
000320 8e a8 f7 bc d2 29 bb bd 85 5a 09 be 97 dc af bd
       -0.03023174 -0.09138836 -0.13413437 -0.08586996
000330 e3 cf 9b bd 06 8b d8 3d be 55 ba 3d 14 b2 f5 bc
       -0.076080106 0.105733916 0.09098385 -0.02999214
000340 36 77 91 bc ed 7d 92 bd bd 17 d2 3c 8a 6d 80 3c
       -0.01775704 -0.07152925 0.025646085 0.015677232
000350 c6 d1 98 3c 85 6c 7c 3b f2 df 80 3d 10 24 05 3d
       0.018654715 0.003851683 0.06292714 0.032505095
000360 dc 38 58 3d ff 36 6b 3d 95 4b f9 3d c7 d0 33 3e
       0.0527886 0.057425495 0.12172619 0.17560111
000370 86 4e 7e 3d 56 15 33 3d ca 06 7f 3d d8 b7 40 3d
       0.062086605 0.04372152 0.062262334 0.047050327
000380 fb d2 e2 3d 5d 01 d1 bd 40 97 6b be 3c 1c b7 bd
       0.110753976 -0.10205338 -0.23006916 -0.08940932
000390 ce e6 38 3e a0 01 0c 3e 44 bb fd 3d f7 ae df 3d
       0.18056795 0.13672495 0.12389234 0.10922044
0003a0 66 cc 07 3d 63 64 bb bd 6c 1c c6 ba b4 a3 8f bd
       0.033153914 -0.091500066 -0.0015114672 -0.07013646
0003b0 92 07 d9 3d be 24 2b 3b 78 22 a6 bd cd fb 5f 3d
       0.10597147 0.002611443 -0.08112043 0.054683495
0003c0 6c 6e 36 be 4b c0 0a bd 9f a3 24 3d bf 80 c8 3c
       -0.1781556 -0.03387479 0.040195104 0.024475453
0003d0 ca 9e 22 3e 35 5d 83 be bc e1 64 be c4 d0 45 be
       0.15880886 -0.2565705 -0.22351736 -0.19317919
0003e0 bf f6 87 bd da 8a 15 3c 6f 7d 04 bc 21 b0 a9 bd
       -0.0663886 0.009127343 -0.008086546 -0.08285547
0003f0 72 91 4f bc cc 1a 92 bd e1 b9 11 3e 0d 46 b1 3c
       -0.012668954 -0.07134017 0.14231063 0.021639848

conv2.bias f4 [16]
000000 47 26 22 3f c6 40 ee be c3 a7 74 3e ec d5 ef be
       0.63339657 -0.46533793 0.23892121 -0.46842897
000010 ed 8b e0 3e 64 3e 31 3d 6e 83 e2 be 20 6b cc 3d
       0.43856755 0.04327239 -0.44240898 0.0998137
000020 90 41 bd be 20 31 ab be a0 ff ce bc 42 24 16 3e
       -0.36964083 -0.33435917 -0.025268376 0.14662269
000030 f3 5f 87 3f ca 1b b0 3e 23 d6 73 3e 50 7b 05 bf
       1.0576156 0.343962 0.23812155 -0.52141285

fc1.weight f4 [120, 400]
000000 1f 36 b5 bb 29 41 d4 3b d9 1e 1c 3d d0 08 a2 b7
       -0.0055301334 0.0064774943 0.038115356 -1.9316009e-05
000010 d3 9d 7d 3d e8 fc 6e bb fb 32 3d 3d 9d 50 5e 3d
       0.06191809 -0.0036466662 0.046191197 0.054276098
000020 df 99 93 bc f9 66 16 bd 9a 00 e9 3c 46 03 19 3d
       -0.018017707 -0.036719296 0.02844267 0.037356637
000030 ff 0e 0f 3d de 16 76 3c 4b ff 25 3c 0e 86 e7 3c
       0.03492641 0.0150201 0.010131667 0.028262164
000040 1b e8 05 bd 65 8a a6 3b fe af 9d 3c 07 6c f4 ba
       -0.032692056 0.005082416 0.019248959 -0.0018647917
000050 c9 52 45 bc 42 ff d4 3c 02 db 2d bd f3 8b 3b bd
       -0.012043663 0.026000623 -0.04244519 -0.045787763
000060 e8 ae f5 39 db 92 c8 3d c1 04 2f bc a2 2f 6f 39
       0.00046860357 0.097936355 -0.010682286 0.00022810561
000070 63 18 0a bd 41 c8 b7 3d ef 12 ba 3c f0 e3 64 bd
       -0.033714663 0.08973742 0.022714106 -0.05588144
000080 01 8a 38 3d b7 e1 9e 3c 2e 84 f5 3c 95 14 e8 bc
       0.045053486 0.019394739 0.029970255 -0.028330127
000090 98 1d 8e 3c 53 9d d3 bc ae a2 4b bd e7 77 2e bd
       0.017348096 -0.025831854 -0.04971569 -0.042594817
0000a0 53 69 9c bc 3d 68 4e bd 5b b2 93 bd fb a7 83 bd
       -0.019093191 -0.050392378 -0.07211753 -0.06428524
0000b0 26 ab 6a bd 99 44 af bd 65 5d a3 bd f3 1f 82 bd
       -0.057292126 -0.08558006 -0.07976798 -0.0635375
0000c0 53 29 6c bc 21 0e 9c bc 1c 63 09 3d db 34 8e 3c
       -0.014414149 -0.019049706 0.033541784 0.017359188
0000d0 14 46 7a bd 5c 5e 21 bd 18 68 3d 3c e9 5e 21 3d
       -0.061101988 -0.03939663 0.011560462 0.039397154
0000e0 1a 73 2a 3a 85 8b b1 bd 8e 98 20 3c b1 1a 48 3d
       0.0006502137 -0.08669189 0.009801997 0.04885358
0000f0 d6 67 15 bd 8c d8 ef 3b 80 f4 a4 bd 8b ae 82 3c
       -0.03647598 0.0073195156 -0.08054447 0.01595237
000100 f1 65 06 3d a9 c4 e7 3b b4 11 0c bc cf a8 24 3b
       0.032812063 0.0070730043 -0.008549143 0.0025125032
000110 cf a4 a7 3c 6c c0 be 3c 4a ae 45 bd 28 8c 17 bd
       0.020464329 0.023285113 -0.048261918 -0.036998898
000120 f7 2b 07 3d bf b3 dd 3c 95 81 4d 3c 4a db 59 bd
       0.033000913 0.027063249 0.012543102 -0.053187646
000130 65 07 c8 3c a3 c7 21 bc 82 51 67 bd 5d 2a 7e bd
       0.024417588 -0.009874257 -0.056474216 -0.06205212
000140 81 c2 6b 3d bc 11 8b 3c fb 4f 19 3d 45 e3 4d bd
       0.05755854 0.01697623 0.03742979 -0.05026557
000150 a6 61 7d bc ab 7d 22 3d 15 8b 54 3d 18 94 16 3d
       -0.015465176 0.039670628 0.05189045 0.036762327
000160 b5 e6 ca 3b df 6f de bc 64 0c 83 bc e4 84 10 3c
       0.006192053 -0.027152954 -0.01599712 0.008820746
000170 91 92 0e 3d f8 aa f8 bb 7c 7f 56 3d 2a b6 77 bd
       0.034807745 -0.0075887404 0.052367672 -0.06047646
000180 36 06 a9 bc fa 27 8c 3d c3 49 d1 3c 18 0b fd bc
       -0.020632844 0.068435624 0.025547868 -0.030889079
000190 a9 c0 69 3d 60 41 25 3d 2e cf b1 3d 40 d2 ff 3c
       0.0570685 0.04034555 0.086820945 0.031228185
0001a0 5d 39 5e 3d e1 b4 2a bd 74 1a a5 3d aa 97 de 3d
       0.054253925 -0.041676406 0.08061686 0.108687714
0001b0 fc 99 3f 3c a3 76 11 3d fa 87 da 3b e2 f3 e5 3d
       0.011694428 0.03551353 0.0066690417 0.112281576
0001c0 96 be 00 3d 13 c4 61 3d a9 0d 67 3b e8 5b 34 bd
       0.031431757 0.05511863 0.0035255945 -0.04403296
0001d0 90 c9 ef bc 57 63 b4 bd ee 89 22 3c 40 0c 82 bd
       -0.029270917 -0.0880801 0.00992058 -0.06349993
0001e0 21 0f 10 be 4b 65 be bd 14 fc 69 bd 07 7e e7 bc
       -0.14068271 -0.09296664 -0.057125166 -0.028258337
0001f0 56 d5 ba bc 9d 5f dc 3c e6 0a 38 bd 47 32 8c bd
       -0.022806805 0.02690106 -0.04493227 -0.06845527
000200 a6 68 bf bc 35 b4 a6 bb 02 77 fa bc 9d 3d a2 bc
       -0.02336533 -0.0050874003 -0.030574325 -0.01980477
000210 d8 73 a5 3c 7e 3b a1 3c 85 e8 69 bd f6 87 97 bc
       0.02019684 0.019681688 -0.057106514 -0.018497448
000220 17 92 39 3b 3b 3e 66 bc 69 91 6e bc 8a 42 0e bd
       0.0028315836 -0.014052923 -0.014561036 -0.034731425
000230 2a c8 f8 bc fb f1 ce bb a6 09 5e bd b6 96 a2 bc
       -0.030368883 -0.0063154674 -0.05420842 -0.019847255
000240 e0 f7 ad bc 9c 9e 3d 3d c1 40 f3 3c ba af cc bb
       -0.02123636 0.04629384 0.029693963 -0.006246534
000250 95 22 a0 bc e0 fb 06 3b 64 47 31 3d 17 24 93 3c
       -0.01954774 0.0020596907 0.043280974 0.017961545
000260 6e ad 0c bc 6e 5c 9d 3b 13 35 93 3c dc ca 42 3c
       -0.008586271 0.0048022782 0.017969644 0.011889186
000270 cd 2b 5b 3b 0c 5f ea 3c 72 87 aa bb 2d 24 00 3d
       0.0033442855 0.028609775 -0.0052041346 0.0312845
000280 db f8 1f 3d 83 1f 82 3c 49 f0 fc bc c7 68 16 bc
       0.039055686 0.015884167 -0.030876296 -0.009180254
000290 4c 82 89 3b bf c3 d8 3c c8 63 ca 3b 36 a4 7d bd
       0.004196441 0.026460527 0.0061764456 -0.061924182
0002a0 2b 68 e9 bc ae 56 71 bc dc 3c 64 3b 65 d7 dd bc
       -0.028492054 -0.014730139 0.0034826314 -0.027080247
0002b0 a7 0c 48 bd 4d 08 16 bc 68 10 53 bd 7f 54 aa 3c
       -0.04884019 -0.0091572525 -0.051529318 0.020792244
0002c0 56 37 aa bd fe 6f 6f bd 6c a5 a6 bd be 41 2b bd
       -0.08311336 -0.058456413 -0.081370205 -0.041810744
0002d0 a9 f7 4b 3d c2 f1 01 bd 35 5a 4c 3d d6 69 97 bd
       0.049796734 -0.0317247 0.049890716 -0.073932335
0002e0 77 1f 34 bd 55 63 ce 3b fc 6a 3e bb a9 33 0b bd
       -0.04397532 0.0062984624 -0.0029055467 -0.033984814
0002f0 83 69 0f bd 60 a5 b8 3b ec a2 2f bc 87 f2 4a bc
       -0.035012733 0.0056349486 -0.010719996 -0.012386925
000300 17 fd 20 3c cf c7 77 bd 55 93 4e bd 45 b1 3b 3d
       0.009825966 -0.060493287 -0.050433476 0.045823354
000310 63 e4 0f 3d 46 29 87 bc 7b 36 03 bd f5 b9 59 3d
       0.035129916 -0.016499173 -0.03203438 0.053155858
000320 ee f3 81 3b b4 ae b2 bc 6e 9c 28 3c b9 a6 6c bc
       0.0039658463 -0.02181182 0.010291202 -0.014444047
000330 a4 34 80 3c 04 ab 0f bc 61 0c 45 3d dd 56 05 bd
       0.015650101 -0.008768801 0.04810751 -0.032553542
000340 e1 72 07 3c ae 82 7e bd e2 b2 ea 3c 4f dc 22 3d
       0.008267135 -0.062136345 0.028649751 0.039760884
000350 e8 a2 19 bb 75 d6 48 bd f1 c8 92 bd 21 96 0d 3c
       -0.0023443047 -0.049032647 -0.07167233 0.008641751
000360 d7 9c 4a 3d 21 37 ce 3b d8 3b a1 bb c5 f9 39 bd
       0.04946598 0.006293193 -0.004920464 -0.045404214
000370 e0 6c 06 3c cf d6 c7 3c ce 77 b2 bc 8c 1c 19 bc
       0.008204669 0.02439442 -0.021785643 -0.009345185
000380 62 41 3e bc 4f cd cf bc 15 48 a4 bc 73 8f c5 bc
       -0.011612268 -0.025366453 -0.020053903 -0.024116253
000390 af cb 42 bd 34 d3 ed bc ec 7a 0e bc 81 23 87 bd
       -0.04755753 -0.029031374 -0.008696299 -0.06598569
0003a0 6a 5f d3 3b b9 bb e2 bc a5 de c4 ba a7 10 85 bd
       0.006450583 -0.027677404 -0.0015019967 -0.06497317
0003b0 a8 11 ad bc 2b eb 77 bd 11 fb 00 3d 4d e6 de 3c
       -0.021126583 -0.060527008 0.031489436 0.027209425
0003c0 f6 68 8c 3b 6f 21 d7 bb 3c b2 d6 3c de d5 ae bc
       0.0042849733 -0.006565265 0.026208036 -0.021342214
0003d0 e6 bd 71 3d eb 2a d8 3c f5 17 57 3d 01 2f db 3b
       0.059018992 0.026387652 0.05251308 0.006688953
0003e0 59 2b 61 3d 4f 95 72 3d df 9c 7b 3b 83 72 5d bd
       0.05497298 0.059224423 0.0038393063 -0.054064285
0003f0 c0 c5 31 3c 78 12 55 bd 57 44 e0 bc 83 bf 6e bd
       0.01085037 -0.052019566 -0.027376337 -0.05828811

fc1.bias f4 [120]
000000 5d eb 1b bd 6a 15 21 bd 8b 9d 40 bd 60 08 97 bd
       -0.038066257 -0.039327063 -0.047025245 -0.07374644
000010 7d ac b9 3b 0a 5b 42 bd 56 58 36 3d 2d 41 13 3d
       0.005666314 -0.047450103 0.044517837 0.03595083
000020 09 53 25 be 74 27 b7 3d 1f b0 dd bc 85 d8 1a 3c
       -0.16144957 0.08943072 -0.02706152 0.009451036
000030 97 cc 14 3d 9a d1 2e 3e 70 14 6d 3d d5 58 0c 3e
       0.036327925 0.17072144 0.05788082 0.13705762
000040 67 a0 e0 3d 9e 1c 0e bb e5 89 58 3d db 0f 52 3d
       0.10968094 -0.0021684538 0.05286588 0.051284652
000050 2d 14 fa 3b a7 5c 92 bc e0 08 fa 3c 29 a8 9f 3d
       0.0076317997 -0.017866446 0.03052181 0.07795746
000060 71 42 05 bd b0 31 19 3e 80 34 9a 3d de a1 90 bd
       -0.032534067 0.1496036 0.07529545 -0.07062124
000070 e4 b3 65 bc fe 35 15 3d ba 61 10 3e 49 72 74 3c
       -0.01401994 0.036428444 0.1409978 0.014919826
000080 b7 75 95 bb d6 ae b2 bb 14 ad 25 bd 5c 72 13 3d
       -0.004561152 -0.005452971 -0.040448263 0.035997733
000090 f9 cf ed 3c c2 94 af 3c 40 6b d1 39 e6 65 82 bc
       0.029029833 0.021433238 0.00039943494 -0.01591773
0000a0 60 4f 1b bd ab b6 22 be 90 58 eb bb df 4f 91 3c
       -0.037917495 -0.15889995 -0.0071821883 0.01773828
0000b0 9d 25 4c bc 78 10 66 bd b0 dd 83 3e 93 ff 0c bd
       -0.01246014 -0.05616805 0.25755072 -0.034423422
0000c0 98 75 9e 3b 9c 78 bf bc 52 18 36 bc e7 df 13 3e
       0.0048357956 -0.02337294 -0.011114197 0.1444088
0000d0 42 51 fa 3c 93 de b4 3d e6 80 be 3d d2 51 4b 3d
       0.030556325 0.08831515 0.09301929 0.049638577
0000e0 10 b5 76 3d 2c d0 90 bc 3f 52 3a 3b d1 7d 5f bd
       0.06023127 -0.01767739 0.002843037 -0.054563347
0000f0 7d bc c6 3b 36 a4 24 3d 13 cc 63 bd fa 39 59 bc
       0.00606495 0.040195666 -0.055614542 -0.013258452
000100 53 39 44 bd cd ed 24 bd 0d b8 2e 3d 64 56 18 bd
       -0.04790623 -0.040265847 0.042655993 -0.037191764
000110 72 45 8d 3d dd db 22 bd 9a 68 f2 bb 7a 7e 67 3d
       0.06898011 -0.03976046 -0.0073977234 0.0565171
000120 72 7b 87 3d 74 b5 14 bd 0e 8b 1f bc 6a de 28 3e
       0.06615342 -0.03630586 -0.009737743 0.16491094
000130 b5 15 e1 bb 6b 97 01 be a2 7d 2f bd ba 22 95 3d
       -0.0068690428 -0.12655418 -0.042844422 0.07282014
000140 5a 05 84 3c b9 41 3a bd db 5b 60 bc eb 2b f1 3b
       0.016115833 -0.045472834 -0.013693775 0.0073599718
000150 ea 93 2b ba 0b 0a bc 3d f1 6a 35 3c 5d 60 09 3c
       -0.0006545173 0.09181603 0.01107286 0.008384791
000160 b5 fb 5f bd 0f 94 05 be d2 72 84 3d 09 54 d0 3d
       -0.054683406 -0.13044761 0.06467213 0.101722784
000170 f2 30 78 bd d4 df fe bb 7c d2 34 3c 48 d3 08 3d
       -0.060593553 -0.0077781472 0.0110365115 0.03340462
000180 71 d3 50 3c 5c 33 55 3e c6 db 0b 3b 3d 23 71 bd
       0.012745724 0.20820373 0.0021340712 -0.058871496
000190 13 1c f3 bd 83 0f d1 3c 87 e4 c3 3d 03 7a 61 bd
       -0.11870589 0.025520092 0.095650725 -0.055048
0001a0 fd f3 03 bc 82 9e 35 3e 55 5d 6b 3d 38 83 27 3d
       -0.008053777 0.17736247 0.057462055 0.040896624
0001b0 86 bd 50 3d fb 0c 56 bc 4c ae 6c 3c 48 a9 1a 3e
       0.050961994 -0.013064618 0.0144458525 0.15103638
0001c0 37 82 0e 3d cf b1 1f 3d c9 d8 9b 3a 5a da 43 3a
       0.03479215 0.03898793 0.0011890169 0.00074711966
0001d0 cb 64 38 bd bc 17 4f 3d f5 ac 07 3e 54 4e e2 3d
       -0.045018 0.050559744 0.13249572 0.11050096

fc2.weight f4 [84, 120]
000000 ad d9 72 3c 51 94 4a 3d 5a f3 9c bb 70 54 96 bd
       0.014822406 0.04945785 -0.004789752 -0.07340324
000010 70 58 3f 3d 00 23 61 bd e4 8f 49 3c 08 88 48 3d
       0.0467152 -0.05496502 0.012302373 0.048957855
000020 e7 b1 73 bd b8 a7 f4 3c 5d 88 51 3d 5c 6b 17 3c
       -0.059495833 0.02986513 0.051155437 0.009241905
000030 f4 2c c5 bd 93 f4 2f 3d 65 6d bb bd 59 80 a2 3c
       -0.09627715 0.042957854 -0.09151725 0.019836592
000040 6e 6e a6 bd 73 ca 2f 3c 45 6d fe 3c 99 06 78 bd
       -0.081265315 0.01072942 0.031057963 -0.060553167
000050 00 58 1b bd 00 38 09 be 0d 2c 72 3d 8a be 4b 3d
       -0.03792572 -0.13400269 0.05912404 0.04974226
000060 63 bc 39 3d 4b fb b4 3d cf e6 a5 3d 57 dd 84 3d
       0.045345675 0.08836993 0.08100664 0.0648753
000070 fd 99 9d 3c f3 f1 88 bd 54 cc e0 bd bb e3 85 bc
       0.019238466 -0.06686773 -0.109764725 -0.016343942
000080 ae 3f 84 bd 86 7d 9b 3d 0c a4 a7 bd b3 39 f5 ba
       -0.064574584 0.07592301 -0.08185586 -0.0018709212
000090 26 90 ba 3d e5 6c d1 3c bf 71 9f bd 74 5d 63 bd
       0.091095254 0.02556462 -0.07785367 -0.055509046
0000a0 7b ed 97 bd 5a eb fe bd 15 f6 c9 3c 46 b8 b1 3b
       -0.07418343 -0.124472335 0.024653474 0.0054235784
0000b0 22 1e 9d 3d a4 11 91 3d 47 82 26 bd 3a f9 b8 bd
       0.07671763 0.07083443 -0.040651586 -0.09031911
0000c0 90 d2 8b 3d 65 25 9f 3c 02 c3 13 3d 8d 4b ab 3d
       0.06827271 0.01942701 0.036074646 0.083640195
0000d0 51 07 51 3b fb 74 34 bc 20 32 06 3c ff 6e 7a bd
       0.003189523 -0.011014218 0.008190662 -0.06114101
0000e0 0e e4 2c 3d 81 b5 f3 bd fa 18 5f 3d b2 f6 71 3c
       0.042209677 -0.118998535 0.05446718 0.014768289
0000f0 96 2d 19 3d e7 41 13 bd 65 43 44 3d 2e 42 b4 bd
       0.03739699 -0.03595152 0.047915835 -0.08801685
000100 7a 6e 55 bd cd 6d 72 3d 80 5a 99 bd ff a9 ed bc
       -0.05210731 0.059186745 -0.07487965 -0.029011725
000110 7a ce 80 bc 59 54 80 3d f1 a4 82 bd 00 28 16 bd
       -0.015723456 0.06266088 -0.06379116 -0.03665924
000120 9e 6c 0d bc 17 72 fa bc 27 e1 23 bd 2f 61 28 3d
       -0.008631853 -0.03057198 -0.040009644 0.041108306
000130 19 7e 48 bc ea f6 1a 3d 36 5d 6e bd 19 24 8b bd
       -0.012237095 0.03783313 -0.05819436 -0.067939945
000140 51 b4 51 3c 49 4c 9c 3d a2 13 6a bd 31 f8 b4 3d
       0.012799338 0.07631738 -0.05714763 0.08836401
000150 bb 74 49 bc b1 08 9c ba f8 57 87 3c 77 ef 9b 3d
       -0.012295897 -0.0011904446 0.016521439 0.07614034
000160 8c 67 fe bc 40 dc db bd 87 f1 8a 3d 4a 54 02 3d
       -0.031055234 -0.10735369 0.06784349 0.031818666
000170 e8 8c e3 bd c2 05 ef 3d 42 51 36 3c a1 57 26 3d
       -0.1111086 0.1167102 0.011127772 0.040610913
000180 4a 85 20 bd ea 56 b6 bd 36 cb 49 bd 2c e3 67 3d
       -0.039189614 -0.08903296 -0.049266063 0.056613132
000190 07 b8 ec 3c ff eb 06 3d 55 00 95 bc 4a be 8b bd
       0.028896345 0.032939907 -0.018188635 -0.06823404
0001a0 9a 66 8e b9 88 a6 4d bd 9d aa 55 bd 2b 30 9d bd
       -0.00027160795 -0.050207645 -0.052164663 -0.07675203
0001b0 d2 91 7a 3c df 82 9d bd 71 65 59 bd 28 30 5e 3d
       0.015293555 -0.07690977 -0.053075258 0.054245144
0001c0 03 a3 55 3d 0e ab 54 3d 95 7e b2 3d 2b fd 75 3c
       0.052157413 0.051920943 0.0871555 0.015013973
0001d0 b7 b5 04 3b 69 93 17 bd d5 ac 19 bc 82 09 eb 3c
       0.0020249912 -0.037005816 -0.009379585 0.028691057
0001e0 74 fb 8c bd 25 49 0f 3c 82 fa c0 3a 2b 09 4c bd
       -0.068838984 0.008745466 0.0014723095 -0.04981343
0001f0 e9 7b 61 3d ba 7c 23 3d 9b 12 98 3d 47 a6 6b bd
       0.05504981 0.03991387 0.07425424 -0.05753162
000200 89 13 8a bd 6e e5 07 bd c2 df 4c 3d a4 48 8f 3d
       -0.06742007 -0.033177786 0.05001808 0.06996277
000210 78 44 35 3d f9 10 8b bc c3 f0 53 bd fa 23 97 3d
       0.04425475 -0.016975867 -0.05174328 0.07379909
000220 cf e7 f0 3c c8 ea 96 bd 63 84 89 bd a8 00 7c bd
       0.02940741 -0.07369 -0.06714704 -0.061524063
000230 d0 de 77 bd a4 24 6f bd ae 4b 68 3c 09 27 88 3c
       -0.060515225 -0.058384553 0.0141782 0.016620176
000240 db 49 b1 bd 4c b6 56 3c b7 10 7c bd e5 c7 de 3a
       -0.08656665 0.013104986 -0.061539378 0.0016996829
000250 0a 8a 93 bd 0b 51 ce ba 74 b8 55 3d 2f c5 3b bd
       -0.07204063 -0.0015740705 0.05217786 -0.045842346
000260 3f 90 85 3c bd b0 92 3d 80 85 38 bc e9 f1 14 bd
       0.016304133 0.071626164 -0.011262298 -0.036363516
000270 3e 2c 4e 3c f9 82 93 3c 82 38 b6 bc 5d 61 01 bd
       0.01258379 0.018006789 -0.022243742 -0.031586993
000280 66 ae bb 3c 0b 87 25 3d 8b df 4f bd 81 f3 8b bc
       0.022910308 0.04041199 -0.050750297 -0.017083885
000290 b1 fe 7c 3d 4e 8a 71 bd 68 57 61 bd d3 f9 82 3d
       0.06176633 -0.05896979 -0.055014998 0.063953064
0002a0 e6 00 4a bd bd c8 be bb 5e f5 67 3d fd fc a9 bd
       -0.049317263 -0.0058222697 0.056630485 -0.08300207
0002b0 49 20 3d 3c 34 b6 a8 bd 1d e3 bd bd 06 15 db 3d
       0.011543342 -0.082378775 -0.09271834 0.10697369
0002c0 7f ce 69 3d 47 ab 87 bd 99 a2 0d 3d bd df 25 bd
       0.057081696 -0.066244654 0.034578893 -0.040496577
0002d0 a6 27 19 bd 09 ca 61 3d 58 26 dc bd e6 dc af bd
       -0.037391327 0.055124316 -0.10749501 -0.08587055
0002e0 2b 16 ae 3c e7 fb 6b bd ba f0 ed 3c 16 36 53 3d
       0.021250805 -0.05761328 0.029045451 0.051565252
0002f0 16 00 d7 bc 2a c3 2e bd c2 7b a9 3d 9f 53 7d bd
       -0.026245158 -0.04266659 0.08275558 -0.061847325
000300 2a eb ad bd 64 5f 2a 3d 9b 70 17 3c 0f f9 0a bd
       -0.084921196 0.041594878 0.009243156 -0.033928927
000310 c9 10 07 bd 26 b4 7e 3d e6 11 60 bd 55 32 13 bd
       -0.032974992 0.06218352 -0.05470457 -0.035936672
000320 e1 31 30 3c d5 8a 7e 3d 3b 02 2d 3d ed 0a b4 3d
       0.01075408 0.06214412 0.042238455 0.087911464
000330 65 4c 9a bc 64 df 80 3c 8a b6 01 bd 39 c3 94 bc
       -0.018835256 0.015731521 -0.031668223 -0.018159496
000340 bd e0 8d bd 52 1b b6 bd 10 43 1d bd 2a ee e3 bd
       -0.06927631 -0.0889193 -0.038394034 -0.111294106
000350 3f b3 65 bd f9 42 7c 3b 60 5b 19 bd 75 6c 52 3d
       -0.056079146 0.0038492067 -0.037440658 0.051372964
000360 87 1d 72 bd 61 b3 7d 3d fb 82 58 bd 81 79 8b bc
       -0.05911019 0.061938647 -0.052859288 -0.017025711
000370 35 5f 56 3d 6d 5b 84 3d 09 69 f1 3c f5 d2 9d 3b
       0.05233689 0.064627506 0.02946903 0.004816408
000380 9f da 77 bd 19 fa 06 3d 4d fb 82 bc fa 77 b4 bc
       -0.060511228 0.032953355 -0.01598897 -0.022029866
000390 b7 19 32 3d 32 31 9b 3d 93 c2 b3 3d ae c3 79 3d
       0.043481555 0.07577743 0.087773465 0.06097763
0003a0 f8 37 dc bd 69 dd b7 3d 9c d8 7c 3c 23 f3 17 3d
       -0.10752863 0.089777775 0.015432503 0.037097108
0003b0 79 07 96 bc 76 9a 3f 3c a0 40 71 3d 95 ea 14 3e
       -0.01831411 0.011694541 0.05889952 0.14542611
0003c0 da d0 95 3d 1c 65 80 bc 37 85 fd 3c 0b 6f 33 3d
       0.07315226 -0.015673213 0.03094731 0.04380707
0003d0 71 7b 5e 3d 05 ae 63 bd 64 32 02 bd 1b 20 3f bd
       0.05431694 -0.05558588 -0.031786337 -0.046661478
0003e0 67 d4 2e bd 5c 7f b1 3b 00 c3 a9 3d 18 aa 72 bd
       -0.04268303 0.0054167937 0.082891464 -0.059244245
0003f0 5e 1b c4 bc 21 71 b5 3d 26 0b af bd 7d 66 93 bc
       -0.023938831 0.08859468 -0.08547048 -0.017993206

fc2.bias f4 [84]
000000 1e 16 00 3e e8 a6 83 bd 71 4f 11 3e 50 22 da 3d
       0.12508437 -0.06428319 0.1419046 0.10651076
000010 86 ac 93 3e 76 ad 58 b9 86 2c cf 3e 23 7e 24 bd
       0.28842562 -0.00020663984 0.40463656 -0.040159356
000020 c0 1b 71 3d 6f d6 26 bd 60 b4 ce 3c 69 1a 4c 3e
       0.058864355 -0.040731844 0.025232494 0.1993195
000030 c5 20 0c 3e 1b 41 db 3d b6 cc 30 ba cc 34 e8 bd
       0.13684376 0.10705777 -0.00067443715 -0.11338195
000040 df 8c d1 bd 95 1f 3f bd ff 29 3f bc fe 60 59 3e
       -0.10231947 -0.04666098 -0.0116677275 0.21228406
000050 3f 29 7d bd ed 4d bf bd 5f fe 9b bd 62 40 f0 3d
       -0.061806913 -0.09341035 -0.07616877 0.1173103
000060 48 fa 98 3b 8b 13 0a be 0f 2c c3 3c 5f 7d c4 bc
       0.0046685077 -0.13484018 0.02382472 -0.023985563
000070 40 83 23 3e 6a 3e 94 bd 2d 31 f6 3d 2f 65 05 bd
       0.15968037 -0.07238467 0.12021098 -0.0325672
000080 6f f2 20 3e fb 24 35 3e b6 cc c6 bd 53 23 ce 3c
       0.15717481 0.17689888 -0.09707014 0.025163328
000090 14 2d ff 3d 6c bd 43 bd 47 14 93 3d 46 bb 81 bd
       0.1245977 -0.04778807 0.07181602 -0.06334548
0000a0 ea 72 b3 bd 61 85 9b bd b1 d3 93 bd 65 3e 06 bd
       -0.087621525 -0.075937994 -0.07218111 -0.032774348
0000b0 12 14 b4 bc 83 97 73 3e 75 32 b7 3e f8 f1 82 bc
       -0.021982227 0.23788266 0.35780683 -0.01598452
0000c0 a7 fb 83 bd 05 81 93 3b 49 da ab 3c ec a4 5d bd
       -0.06444483 0.0045014643 0.02097811 -0.05411236
0000d0 e6 33 93 3e 7a 75 a2 3e a9 f1 4f 3e 13 0b f6 bb
       0.28750533 0.31730253 0.2030703 -0.0075086444
0000e0 90 4e de 3d 83 ff d2 3c b6 69 9f bc dd ad f3 bc
       0.10854828 0.025756603 -0.019459587 -0.02974599
0000f0 76 31 9d bd 5a 6b cf 3b 87 34 19 3e c6 73 4d 3e
       -0.076754496 0.006329936 0.14961444 0.20063695
000100 2d f1 dc 3e 12 05 57 3e fa 9b e2 ba bc a5 51 3b
       0.43152753 0.20998028 -0.0017288916 0.0031989655
000110 0b 67 a3 3d f2 9b a8 bd 1c 9c 9e 3d 36 1c 87 bd
       0.07978638 -0.08232869 0.07744619 -0.06597178
000120 19 3a 0d 3a 04 35 5c 3d b6 47 03 bd e9 e6 99 bd
       0.00053873804 0.053761497 -0.03205081 -0.07514746
000130 36 01 4f bd 5c 5b 26 be 46 33 3c be e7 8e 35 3e
       -0.050538264 -0.16245788 -0.18378934 0.17730294
000140 ce 91 23 3e d1 55 9c 3e 96 1f 9a bc 1f 7c 96 bd
       0.15973589 0.30534223 -0.01881389 -0.07347893

fc3.weight f4 [10, 84]
000000 be 70 8e 3d 04 0c d2 bc 3e 8b 2b 3d f1 1b e4 bc
       0.069550976 -0.025640495 0.04188084 -0.027845355
000010 fe 9d 21 be ac 05 52 bd 0d 00 8e be cb 15 df bd
       -0.15782925 -0.05127494 -0.27734414 -0.108928286
000020 75 32 94 3c 85 ee 69 3e fb b7 04 bd 34 5e b1 3d
       0.018090466 0.22844894 -0.03240202 0.08660546
000030 bd cb 80 bb 62 bc 98 3d a8 10 2c 3d 5f 26 ef bc
       -0.0039305375 0.07457806 0.042008072 -0.029193101
000040 1d ea b8 bc 16 01 db 3d c8 d5 c5 3d 7f f4 88 3d
       -0.022572571 0.106935665 0.09659916 0.06687259
000050 78 bf ba 3d 72 d9 b6 3c 2b 55 c3 3d 04 fe 7e 3e
       0.09118551 0.022320483 0.09537729 0.24901587
000060 11 27 b3 bd a5 c9 12 3e e0 62 9c bd 75 06 ec 3d
       -0.08747686 0.14334734 -0.076360464 0.11524669
000070 7a 74 08 be 04 31 73 bd ae b0 39 bd 99 79 ff 3d
       -0.13325682 -0.059372917 -0.04533451 0.12474365
000080 2d 38 64 bd 66 3c 02 be b4 8a 99 3e d6 68 1a 3d
       -0.055717636 -0.12718353 0.29988635 0.037697636
000090 4d 97 9d 3c fd 82 95 bd e0 54 08 3e df 50 74 3e
       0.019237185 -0.07300375 0.13313627 0.23858975
0000a0 55 20 aa 3d 59 6e 35 bd ee 8f 94 bd 42 86 8c bd
       0.08306948 -0.04429469 -0.07254015 -0.06861545
0000b0 2f 06 d6 3c 3d 78 60 3e 0d 38 b6 3c 96 e0 00 be
       0.026125995 0.21920867 0.022243524 -0.12585673
0000c0 49 11 29 bd a7 d8 92 3c b9 7d 87 3e 02 80 93 3d
       -0.04127625 0.017925574 0.26463106 0.0720215
0000d0 a8 86 8a be af 15 17 be 7b bd bd 3e fc cf 8b bd
       -0.2705586 -0.14754365 0.37058625 -0.06826779
0000e0 d8 e0 eb bd 95 53 38 3c d8 51 52 3d 81 3b 0c be
       -0.11517495 0.011250396 0.051347584 -0.13694574
0000f0 72 95 0c 3d db 47 06 bd 2e a2 3d be ac 7f 62 3e
       0.03432221 -0.03278337 -0.18518898 0.22119015
000100 66 97 52 be f8 7b 5f 3d 95 7b 2a be 65 09 0f be
       -0.20565566 0.054561585 -0.16648705 -0.13968427
000110 72 3f 8b 3c 0f a5 ca bd 15 1d 5c 3c 61 ac 6e 3d
       0.016998027 -0.09894764 0.013434668 0.058269862
000120 21 5c 78 3e e5 d6 60 3d c7 3f e0 3c 57 23 cf 3d
       0.24253894 0.05489244 0.027374161 0.101141624
000130 82 0b 86 bd f4 09 01 be 8f 3a 8b 3e 97 30 3f be
       -0.06545164 -0.12601453 0.27193114 -0.1867088
000140 47 e9 79 3d 71 be 88 be 13 ea f1 3d ae 64 ea 3c
       0.061013486 -0.26707795 0.11812224 0.028612461
000150 49 cd 13 be 4d 53 78 3c b8 32 b7 be 55 86 58 bd
       -0.14433779 0.015156579 -0.35780883 -0.052862484
000160 13 10 63 be 0e d4 8c bd 4b 50 93 be 8a 9d 81 bc
       -0.221741 -0.06876384 -0.28772196 -0.01582219
000170 f5 ff 86 3d 2b fa 23 be 9b c9 94 3e ea 9d 6f bd
       0.06591789 -0.160134 0.29060063 -0.058500208
000180 65 1d d5 ba 11 dd de bc ba 29 a5 3e 82 d6 b6 bd
       -0.0016259371 -0.027205022 0.32258397 -0.08927633
000190 55 88 84 3d f6 96 ac bd ef 79 20 be 88 24 be bd
       0.06471316 -0.08427231 -0.15671514 -0.092843115
0001a0 51 a1 bd bb 3c 4d 33 3d b8 c9 b5 bc ab 6a 2a be
       -0.0057870527 0.04377483 -0.022190914 -0.16642253
0001b0 54 1e 9e 3d 43 86 9f ba 9f a6 90 bd 79 0e 82 bd
       0.077206284 -0.001217075 -0.070630305 -0.06350417
0001c0 7c 8d 1b 3e 13 2d 61 bd 3c c3 88 bc 71 93 ad bd
       0.15190691 -0.054974627 -0.016694658 -0.08475388
0001d0 10 e4 fb bc 2d 18 89 be 7c 0a 9a 3e b8 d7 e5 3c
       -0.030748397 -0.26776257 0.30086124 0.028056964
0001e0 f0 4c fe bc e8 87 1e 3d cb 6b 31 3e 50 df b9 bd
       -0.031042546 0.03870383 0.17326276 -0.090757966
0001f0 32 49 a0 3e b4 ee 49 3d c8 4c 87 bd 44 ba 4b bd
       0.31305844 0.04929991 -0.06606442 -0.049738184
000200 ed a8 89 3c 8e 27 6c 3c 1d 8e d0 be 41 8b 95 3b
       0.016804183 0.014413727 -0.40733424 0.0045637195
000210 01 b1 26 3d ef 84 8b 3e cf 6c c3 bd 1c 63 53 be
       0.040696148 0.27249858 -0.09542238 -0.20643276
000220 b1 01 60 be 1e d2 03 3e 5c 1c e3 bc 69 06 ae 3d
       -0.21875645 0.12873122 -0.027723484 0.084973164
000230 08 be 28 bd 2d 46 68 bd a6 e4 eb 3d 02 35 1d 3d
       -0.041196853 -0.05670755 0.115182206 0.03838063
000240 26 4d a6 bd 7f cf f2 bc ef e3 44 bd 8b a6 ae bd
       -0.08120184 -0.029639957 -0.048068937 -0.08527859
000250 39 dc b0 be d6 2e bc 3c 49 0b 58 bc 72 a7 1a 3e
       -0.34543017 0.022971552 -0.013186284 0.15102938
000260 a0 39 b2 bd 0f 4a fa bc 02 7e 3f 3e 04 18 53 bd
       -0.08702397 -0.030552892 0.18700412 -0.051536575
000270 ab 9b 12 3c 8d 99 cf bd be 85 be 3d aa 7f 24 bd
       0.008948247 -0.10136709 0.09302853 -0.040160812
000280 83 8d 09 3c 20 34 7b 3e 5d 3f 81 3e 57 ac bf 3d
       0.008395555 0.24531603 0.25243655 0.09359043
000290 e8 5f be 3d 88 de 0b be 81 ed 01 3e a0 79 dd bd
       0.092956364 -0.13659108 0.12688257 -0.10814214
0002a0 07 ac c3 3d 12 c1 1a be b0 c5 23 3e 04 98 09 be
       0.09554296 -0.15112713 0.1599338 -0.13436896
0002b0 4a 61 02 3e b0 ca 79 3d e7 6b 65 3e ad 4b df bd
       0.12732425 0.060984313 0.22404443 -0.10903106
0002c0 2c 62 ba ba 08 b2 21 3c 6d 63 0d be 0c c9 1c be
       -0.0014219931 0.009869106 -0.13807459 -0.15311068
0002d0 56 44 99 bc 14 c7 f5 3d 42 a7 27 be f7 34 b7 bd
       -0.018709343 0.12000862 -0.16372398 -0.08945649
0002e0 20 f9 98 3b a5 94 af ba 43 84 b3 3d f6 65 91 3e
       0.00466837 -0.001339574 0.08765461 0.28398103
0002f0 60 24 99 bd d1 e0 3f bd 30 a0 8b bd c3 06 18 3c
       -0.07477641 -0.04684526 -0.06817663 0.009278956
000300 34 de ed 3d 07 1c 01 3c fd 9d fb 3b 61 db 29 3c
       0.116146475 0.007880217 0.007678746 0.010367245
000310 c7 f5 c4 bd 1e 3c ef 3d e5 61 8a 3d 5f e7 87 3c
       -0.09617191 0.11681388 0.06756953 0.016589819
000320 60 b5 38 3e 9b e2 38 3c 5c d3 11 ba 01 3f 71 3d
       0.18037939 0.011284496 -0.0005562806 0.058897976
000330 e9 ed d0 3d 47 dc 95 bd 43 53 17 3d e7 80 50 3e
       0.10201628 -0.07317405 0.03694464 0.20361672
000340 ae 6c ac bd 73 27 57 bc 92 f5 22 3d 7f a3 66 3d
       -0.084191665 -0.013131964 0.039784975 0.056308266
000350 4a d6 ec 3b c5 2d d4 bd 69 0b eb 3d 35 37 c6 3d
       0.0072276937 -0.10360292 0.11476786 0.09678499
000360 09 65 bc 3d 4b 1b 4a bd a0 f9 86 3e 45 5e 65 3e
       0.091989584 -0.049342435 0.26362324 0.22399242
000370 c8 26 b7 3e 1c fb d3 3c ef d6 67 3d 7c e1 fd 3d
       0.35771775 0.025876574 0.05660146 0.12396523
000380 ac 45 26 be 42 1d ec 3c a6 11 45 3d be 26 09 bd
       -0.16237515 0.028822545 0.048112534 -0.033484213
000390 3d 46 e4 3a 68 90 93 bd 22 4c 1d 3e fb f2 fc bd
       0.0017415952 -0.07205278 0.15361074 -0.12351032
0003a0 43 59 9e 3d 05 6e 70 3d 22 3d 3f 3d 33 a3 05 3d
       0.07731869 0.058698673 0.04668916 0.032626342
0003b0 ef a3 78 3e da 12 03 3d c3 d0 19 be 97 51 97 3d
       0.24281286 0.0320004 -0.15021043 0.07388609
0003c0 a7 70 ec bd 52 e7 ac bd ee ad a6 3c a3 ca 23 3d
       -0.11544924 -0.08442558 0.020346608 0.03998817
0003d0 c4 b1 b4 3c fc 01 74 3d d7 8b f0 bd d8 dc 6f 3c
       0.022057422 0.059572205 -0.11745422 0.014640056
0003e0 30 7f f3 bd e0 1b 76 bc c7 6a 5b 3e 0c c0 76 3e
       -0.118894935 -0.015021294 0.21427451 0.24096698
0003f0 09 ab 04 3d 21 18 37 3d 5b f1 55 3e 92 62 04 3e
       0.032389674 0.044700745 0.20892851 0.12928227

fc3.bias f4 [10]
000000 8a 0b d0 be 43 f9 e0 be da b7 26 3e a3 65 cd 3e
       -0.40633804 -0.43940172 0.16281071 0.40116605
000010 6a 88 ee 3e 56 3a cc bd cf 15 8d 3e 88 2d 5f be
       0.4658845 -0.09972064 0.275557 -0.21794713
000020 1a 20 45 3e 95 69 81 be
       0.19250527 -0.25275865
